saved_model_schema_version: 1
meta_graphs {
  meta_info_def {
    stripped_op_list {
      op {
        name: "Add"
        input_arg {
          name: "x"
          type_attr: "T"
        }
        input_arg {
          name: "y"
          type_attr: "T"
        }
        output_arg {
          name: "z"
          type_attr: "T"
        }
        attr {
          name: "T"
          type: "type"
          allowed_values {
            list {
              type: DT_HALF
              type: DT_FLOAT
              type: DT_DOUBLE
              type: DT_UINT8
              type: DT_INT8
              type: DT_INT16
              type: DT_INT32
              type: DT_INT64
              type: DT_COMPLEX64
              type: DT_COMPLEX128
              type: DT_STRING
            }
          }
        }
      }
      op {
        name: "AddN"
        input_arg {
          name: "inputs"
          type_attr: "T"
          number_attr: "N"
        }
        output_arg {
          name: "sum"
          type_attr: "T"
        }
        attr {
          name: "N"
          type: "int"
          has_minimum: true
          minimum: 1
        }
        attr {
          name: "T"
          type: "type"
          allowed_values {
            list {
              type: DT_FLOAT
              type: DT_DOUBLE
              type: DT_INT64
              type: DT_INT32
              type: DT_UINT8
              type: DT_UINT16
              type: DT_INT16
              type: DT_INT8
              type: DT_COMPLEX64
              type: DT_COMPLEX128
              type: DT_QINT8
              type: DT_QUINT8
              type: DT_QINT32
              type: DT_HALF
              type: DT_VARIANT
            }
          }
        }
        is_aggregate: true
        is_commutative: true
      }
      op {
        name: "ApplyAdam"
        input_arg {
          name: "var"
          type_attr: "T"
          is_ref: true
        }
        input_arg {
          name: "m"
          type_attr: "T"
          is_ref: true
        }
        input_arg {
          name: "v"
          type_attr: "T"
          is_ref: true
        }
        input_arg {
          name: "beta1_power"
          type_attr: "T"
        }
        input_arg {
          name: "beta2_power"
          type_attr: "T"
        }
        input_arg {
          name: "lr"
          type_attr: "T"
        }
        input_arg {
          name: "beta1"
          type_attr: "T"
        }
        input_arg {
          name: "beta2"
          type_attr: "T"
        }
        input_arg {
          name: "epsilon"
          type_attr: "T"
        }
        input_arg {
          name: "grad"
          type_attr: "T"
        }
        output_arg {
          name: "out"
          type_attr: "T"
          is_ref: true
        }
        attr {
          name: "T"
          type: "type"
          allowed_values {
            list {
              type: DT_FLOAT
              type: DT_DOUBLE
              type: DT_INT64
              type: DT_INT32
              type: DT_UINT8
              type: DT_UINT16
              type: DT_INT16
              type: DT_INT8
              type: DT_COMPLEX64
              type: DT_COMPLEX128
              type: DT_QINT8
              type: DT_QUINT8
              type: DT_QINT32
              type: DT_HALF
            }
          }
        }
        attr {
          name: "use_locking"
          type: "bool"
          default_value {
            b: false
          }
        }
        attr {
          name: "use_nesterov"
          type: "bool"
          default_value {
            b: false
          }
        }
      }
      op {
        name: "ArgMax"
        input_arg {
          name: "input"
          type_attr: "T"
        }
        input_arg {
          name: "dimension"
          type_attr: "Tidx"
        }
        output_arg {
          name: "output"
          type_attr: "output_type"
        }
        attr {
          name: "T"
          type: "type"
          allowed_values {
            list {
              type: DT_FLOAT
              type: DT_DOUBLE
              type: DT_INT64
              type: DT_INT32
              type: DT_UINT8
              type: DT_UINT16
              type: DT_INT16
              type: DT_INT8
              type: DT_COMPLEX64
              type: DT_COMPLEX128
              type: DT_QINT8
              type: DT_QUINT8
              type: DT_QINT32
              type: DT_HALF
            }
          }
        }
        attr {
          name: "Tidx"
          type: "type"
          default_value {
            type: DT_INT32
          }
          allowed_values {
            list {
              type: DT_INT32
              type: DT_INT64
            }
          }
        }
        attr {
          name: "output_type"
          type: "type"
          default_value {
            type: DT_INT64
          }
          allowed_values {
            list {
              type: DT_INT32
              type: DT_INT64
            }
          }
        }
      }
      op {
        name: "Assign"
        input_arg {
          name: "ref"
          type_attr: "T"
          is_ref: true
        }
        input_arg {
          name: "value"
          type_attr: "T"
        }
        output_arg {
          name: "output_ref"
          type_attr: "T"
          is_ref: true
        }
        attr {
          name: "T"
          type: "type"
        }
        attr {
          name: "validate_shape"
          type: "bool"
          default_value {
            b: true
          }
        }
        attr {
          name: "use_locking"
          type: "bool"
          default_value {
            b: true
          }
        }
        allows_uninitialized_input: true
      }
      op {
        name: "AvgPool"
        input_arg {
          name: "value"
          type_attr: "T"
        }
        output_arg {
          name: "output"
          type_attr: "T"
        }
        attr {
          name: "ksize"
          type: "list(int)"
          has_minimum: true
          minimum: 4
        }
        attr {
          name: "strides"
          type: "list(int)"
          has_minimum: true
          minimum: 4
        }
        attr {
          name: "padding"
          type: "string"
          allowed_values {
            list {
              s: "SAME"
              s: "VALID"
            }
          }
        }
        attr {
          name: "data_format"
          type: "string"
          default_value {
            s: "NHWC"
          }
          allowed_values {
            list {
              s: "NHWC"
              s: "NCHW"
            }
          }
        }
        attr {
          name: "T"
          type: "type"
          allowed_values {
            list {
              type: DT_HALF
              type: DT_FLOAT
              type: DT_DOUBLE
            }
          }
        }
      }
      op {
        name: "AvgPoolGrad"
        input_arg {
          name: "orig_input_shape"
          type: DT_INT32
        }
        input_arg {
          name: "grad"
          type_attr: "T"
        }
        output_arg {
          name: "output"
          type_attr: "T"
        }
        attr {
          name: "ksize"
          type: "list(int)"
          has_minimum: true
          minimum: 4
        }
        attr {
          name: "strides"
          type: "list(int)"
          has_minimum: true
          minimum: 4
        }
        attr {
          name: "padding"
          type: "string"
          allowed_values {
            list {
              s: "SAME"
              s: "VALID"
            }
          }
        }
        attr {
          name: "data_format"
          type: "string"
          default_value {
            s: "NHWC"
          }
          allowed_values {
            list {
              s: "NHWC"
              s: "NCHW"
            }
          }
        }
        attr {
          name: "T"
          type: "type"
          allowed_values {
            list {
              type: DT_HALF
              type: DT_FLOAT
              type: DT_DOUBLE
            }
          }
        }
      }
      op {
        name: "BroadcastGradientArgs"
        input_arg {
          name: "s0"
          type_attr: "T"
        }
        input_arg {
          name: "s1"
          type_attr: "T"
        }
        output_arg {
          name: "r0"
          type_attr: "T"
        }
        output_arg {
          name: "r1"
          type_attr: "T"
        }
        attr {
          name: "T"
          type: "type"
          default_value {
            type: DT_INT32
          }
          allowed_values {
            list {
              type: DT_INT32
              type: DT_INT64
            }
          }
        }
      }
      op {
        name: "Cast"
        input_arg {
          name: "x"
          type_attr: "SrcT"
        }
        output_arg {
          name: "y"
          type_attr: "DstT"
        }
        attr {
          name: "SrcT"
          type: "type"
        }
        attr {
          name: "DstT"
          type: "type"
        }
      }
      op {
        name: "ConcatV2"
        input_arg {
          name: "values"
          type_attr: "T"
          number_attr: "N"
        }
        input_arg {
          name: "axis"
          type_attr: "Tidx"
        }
        output_arg {
          name: "output"
          type_attr: "T"
        }
        attr {
          name: "N"
          type: "int"
          has_minimum: true
          minimum: 2
        }
        attr {
          name: "T"
          type: "type"
        }
        attr {
          name: "Tidx"
          type: "type"
          default_value {
            type: DT_INT32
          }
          allowed_values {
            list {
              type: DT_INT32
              type: DT_INT64
            }
          }
        }
      }
      op {
        name: "Const"
        output_arg {
          name: "output"
          type_attr: "dtype"
        }
        attr {
          name: "value"
          type: "tensor"
        }
        attr {
          name: "dtype"
          type: "type"
        }
      }
      op {
        name: "Conv2D"
        input_arg {
          name: "input"
          type_attr: "T"
        }
        input_arg {
          name: "filter"
          type_attr: "T"
        }
        output_arg {
          name: "output"
          type_attr: "T"
        }
        attr {
          name: "T"
          type: "type"
          allowed_values {
            list {
              type: DT_HALF
              type: DT_FLOAT
            }
          }
        }
        attr {
          name: "strides"
          type: "list(int)"
        }
        attr {
          name: "use_cudnn_on_gpu"
          type: "bool"
          default_value {
            b: true
          }
        }
        attr {
          name: "padding"
          type: "string"
          allowed_values {
            list {
              s: "SAME"
              s: "VALID"
            }
          }
        }
        attr {
          name: "data_format"
          type: "string"
          default_value {
            s: "NHWC"
          }
          allowed_values {
            list {
              s: "NHWC"
              s: "NCHW"
            }
          }
        }
      }
      op {
        name: "Conv2DBackpropFilter"
        input_arg {
          name: "input"
          type_attr: "T"
        }
        input_arg {
          name: "filter_sizes"
          type: DT_INT32
        }
        input_arg {
          name: "out_backprop"
          type_attr: "T"
        }
        output_arg {
          name: "output"
          type_attr: "T"
        }
        attr {
          name: "T"
          type: "type"
          allowed_values {
            list {
              type: DT_HALF
              type: DT_FLOAT
            }
          }
        }
        attr {
          name: "strides"
          type: "list(int)"
        }
        attr {
          name: "use_cudnn_on_gpu"
          type: "bool"
          default_value {
            b: true
          }
        }
        attr {
          name: "padding"
          type: "string"
          allowed_values {
            list {
              s: "SAME"
              s: "VALID"
            }
          }
        }
        attr {
          name: "data_format"
          type: "string"
          default_value {
            s: "NHWC"
          }
          allowed_values {
            list {
              s: "NHWC"
              s: "NCHW"
            }
          }
        }
      }
      op {
        name: "Conv2DBackpropInput"
        input_arg {
          name: "input_sizes"
          type: DT_INT32
        }
        input_arg {
          name: "filter"
          type_attr: "T"
        }
        input_arg {
          name: "out_backprop"
          type_attr: "T"
        }
        output_arg {
          name: "output"
          type_attr: "T"
        }
        attr {
          name: "T"
          type: "type"
          allowed_values {
            list {
              type: DT_HALF
              type: DT_FLOAT
            }
          }
        }
        attr {
          name: "strides"
          type: "list(int)"
        }
        attr {
          name: "use_cudnn_on_gpu"
          type: "bool"
          default_value {
            b: true
          }
        }
        attr {
          name: "padding"
          type: "string"
          allowed_values {
            list {
              s: "SAME"
              s: "VALID"
            }
          }
        }
        attr {
          name: "data_format"
          type: "string"
          default_value {
            s: "NHWC"
          }
          allowed_values {
            list {
              s: "NHWC"
              s: "NCHW"
            }
          }
        }
      }
      op {
        name: "Equal"
        input_arg {
          name: "x"
          type_attr: "T"
        }
        input_arg {
          name: "y"
          type_attr: "T"
        }
        output_arg {
          name: "z"
          type: DT_BOOL
        }
        attr {
          name: "T"
          type: "type"
          allowed_values {
            list {
              type: DT_HALF
              type: DT_FLOAT
              type: DT_DOUBLE
              type: DT_UINT8
              type: DT_INT8
              type: DT_INT16
              type: DT_INT32
              type: DT_INT64
              type: DT_COMPLEX64
              type: DT_QUINT8
              type: DT_QINT8
              type: DT_QINT32
              type: DT_STRING
              type: DT_BOOL
              type: DT_COMPLEX128
            }
          }
        }
        is_commutative: true
      }
      op {
        name: "ExpandDims"
        input_arg {
          name: "input"
          type_attr: "T"
        }
        input_arg {
          name: "dim"
          type_attr: "Tdim"
        }
        output_arg {
          name: "output"
          type_attr: "T"
        }
        attr {
          name: "T"
          type: "type"
        }
        attr {
          name: "Tdim"
          type: "type"
          default_value {
            type: DT_INT32
          }
          allowed_values {
            list {
              type: DT_INT32
              type: DT_INT64
            }
          }
        }
      }
      op {
        name: "Fill"
        input_arg {
          name: "dims"
          type: DT_INT32
        }
        input_arg {
          name: "value"
          type_attr: "T"
        }
        output_arg {
          name: "output"
          type_attr: "T"
        }
        attr {
          name: "T"
          type: "type"
        }
      }
      op {
        name: "FloorDiv"
        input_arg {
          name: "x"
          type_attr: "T"
        }
        input_arg {
          name: "y"
          type_attr: "T"
        }
        output_arg {
          name: "z"
          type_attr: "T"
        }
        attr {
          name: "T"
          type: "type"
          allowed_values {
            list {
              type: DT_HALF
              type: DT_FLOAT
              type: DT_DOUBLE
              type: DT_UINT8
              type: DT_INT8
              type: DT_UINT16
              type: DT_INT16
              type: DT_INT32
              type: DT_INT64
              type: DT_COMPLEX64
              type: DT_COMPLEX128
            }
          }
        }
      }
      op {
        name: "Identity"
        input_arg {
          name: "input"
          type_attr: "T"
        }
        output_arg {
          name: "output"
          type_attr: "T"
        }
        attr {
          name: "T"
          type: "type"
        }
      }
      op {
        name: "L2Loss"
        input_arg {
          name: "t"
          type_attr: "T"
        }
        output_arg {
          name: "output"
          type_attr: "T"
        }
        attr {
          name: "T"
          type: "type"
          allowed_values {
            list {
              type: DT_HALF
              type: DT_FLOAT
              type: DT_DOUBLE
            }
          }
        }
      }
      op {
        name: "MatMul"
        input_arg {
          name: "a"
          type_attr: "T"
        }
        input_arg {
          name: "b"
          type_attr: "T"
        }
        output_arg {
          name: "product"
          type_attr: "T"
        }
        attr {
          name: "transpose_a"
          type: "bool"
          default_value {
            b: false
          }
        }
        attr {
          name: "transpose_b"
          type: "bool"
          default_value {
            b: false
          }
        }
        attr {
          name: "T"
          type: "type"
          allowed_values {
            list {
              type: DT_HALF
              type: DT_FLOAT
              type: DT_DOUBLE
              type: DT_INT32
              type: DT_COMPLEX64
              type: DT_COMPLEX128
            }
          }
        }
      }
      op {
        name: "Maximum"
        input_arg {
          name: "x"
          type_attr: "T"
        }
        input_arg {
          name: "y"
          type_attr: "T"
        }
        output_arg {
          name: "z"
          type_attr: "T"
        }
        attr {
          name: "T"
          type: "type"
          allowed_values {
            list {
              type: DT_HALF
              type: DT_FLOAT
              type: DT_DOUBLE
              type: DT_INT32
              type: DT_INT64
            }
          }
        }
        is_commutative: true
      }
      op {
        name: "Mean"
        input_arg {
          name: "input"
          type_attr: "T"
        }
        input_arg {
          name: "reduction_indices"
          type_attr: "Tidx"
        }
        output_arg {
          name: "output"
          type_attr: "T"
        }
        attr {
          name: "keep_dims"
          type: "bool"
          default_value {
            b: false
          }
        }
        attr {
          name: "T"
          type: "type"
          allowed_values {
            list {
              type: DT_FLOAT
              type: DT_DOUBLE
              type: DT_INT64
              type: DT_INT32
              type: DT_UINT8
              type: DT_UINT16
              type: DT_INT16
              type: DT_INT8
              type: DT_COMPLEX64
              type: DT_COMPLEX128
              type: DT_QINT8
              type: DT_QUINT8
              type: DT_QINT32
              type: DT_HALF
            }
          }
        }
        attr {
          name: "Tidx"
          type: "type"
          default_value {
            type: DT_INT32
          }
          allowed_values {
            list {
              type: DT_INT32
              type: DT_INT64
            }
          }
        }
      }
      op {
        name: "MergeV2Checkpoints"
        input_arg {
          name: "checkpoint_prefixes"
          type: DT_STRING
        }
        input_arg {
          name: "destination_prefix"
          type: DT_STRING
        }
        attr {
          name: "delete_old_dirs"
          type: "bool"
          default_value {
            b: true
          }
        }
        is_stateful: true
      }
      op {
        name: "Mul"
        input_arg {
          name: "x"
          type_attr: "T"
        }
        input_arg {
          name: "y"
          type_attr: "T"
        }
        output_arg {
          name: "z"
          type_attr: "T"
        }
        attr {
          name: "T"
          type: "type"
          allowed_values {
            list {
              type: DT_HALF
              type: DT_FLOAT
              type: DT_DOUBLE
              type: DT_UINT8
              type: DT_INT8
              type: DT_UINT16
              type: DT_INT16
              type: DT_INT32
              type: DT_INT64
              type: DT_COMPLEX64
              type: DT_COMPLEX128
            }
          }
        }
        is_commutative: true
      }
      op {
        name: "NoOp"
      }
      op {
        name: "OneHot"
        input_arg {
          name: "indices"
          type_attr: "TI"
        }
        input_arg {
          name: "depth"
          type: DT_INT32
        }
        input_arg {
          name: "on_value"
          type_attr: "T"
        }
        input_arg {
          name: "off_value"
          type_attr: "T"
        }
        output_arg {
          name: "output"
          type_attr: "T"
        }
        attr {
          name: "axis"
          type: "int"
          default_value {
            i: -1
          }
        }
        attr {
          name: "T"
          type: "type"
        }
        attr {
          name: "TI"
          type: "type"
          default_value {
            type: DT_INT64
          }
          allowed_values {
            list {
              type: DT_UINT8
              type: DT_INT32
              type: DT_INT64
            }
          }
        }
      }
      op {
        name: "Pack"
        input_arg {
          name: "values"
          type_attr: "T"
          number_attr: "N"
        }
        output_arg {
          name: "output"
          type_attr: "T"
        }
        attr {
          name: "N"
          type: "int"
          has_minimum: true
          minimum: 1
        }
        attr {
          name: "T"
          type: "type"
        }
        attr {
          name: "axis"
          type: "int"
          default_value {
            i: 0
          }
        }
      }
      op {
        name: "Placeholder"
        output_arg {
          name: "output"
          type_attr: "dtype"
        }
        attr {
          name: "dtype"
          type: "type"
        }
        attr {
          name: "shape"
          type: "shape"
          default_value {
            shape {
              unknown_rank: true
            }
          }
        }
      }
      op {
        name: "Prod"
        input_arg {
          name: "input"
          type_attr: "T"
        }
        input_arg {
          name: "reduction_indices"
          type_attr: "Tidx"
        }
        output_arg {
          name: "output"
          type_attr: "T"
        }
        attr {
          name: "keep_dims"
          type: "bool"
          default_value {
            b: false
          }
        }
        attr {
          name: "T"
          type: "type"
          allowed_values {
            list {
              type: DT_FLOAT
              type: DT_DOUBLE
              type: DT_INT64
              type: DT_INT32
              type: DT_UINT8
              type: DT_UINT16
              type: DT_INT16
              type: DT_INT8
              type: DT_COMPLEX64
              type: DT_COMPLEX128
              type: DT_QINT8
              type: DT_QUINT8
              type: DT_QINT32
              type: DT_HALF
            }
          }
        }
        attr {
          name: "Tidx"
          type: "type"
          default_value {
            type: DT_INT32
          }
          allowed_values {
            list {
              type: DT_INT32
              type: DT_INT64
            }
          }
        }
      }
      op {
        name: "Range"
        input_arg {
          name: "start"
          type_attr: "Tidx"
        }
        input_arg {
          name: "limit"
          type_attr: "Tidx"
        }
        input_arg {
          name: "delta"
          type_attr: "Tidx"
        }
        output_arg {
          name: "output"
          type_attr: "Tidx"
        }
        attr {
          name: "Tidx"
          type: "type"
          default_value {
            type: DT_INT32
          }
          allowed_values {
            list {
              type: DT_FLOAT
              type: DT_DOUBLE
              type: DT_INT32
              type: DT_INT64
            }
          }
        }
      }
      op {
        name: "Rank"
        input_arg {
          name: "input"
          type_attr: "T"
        }
        output_arg {
          name: "output"
          type: DT_INT32
        }
        attr {
          name: "T"
          type: "type"
        }
      }
      op {
        name: "RealDiv"
        input_arg {
          name: "x"
          type_attr: "T"
        }
        input_arg {
          name: "y"
          type_attr: "T"
        }
        output_arg {
          name: "z"
          type_attr: "T"
        }
        attr {
          name: "T"
          type: "type"
          allowed_values {
            list {
              type: DT_HALF
              type: DT_FLOAT
              type: DT_DOUBLE
              type: DT_UINT8
              type: DT_INT8
              type: DT_UINT16
              type: DT_INT16
              type: DT_INT32
              type: DT_INT64
              type: DT_COMPLEX64
              type: DT_COMPLEX128
            }
          }
        }
      }
      op {
        name: "Relu"
        input_arg {
          name: "features"
          type_attr: "T"
        }
        output_arg {
          name: "activations"
          type_attr: "T"
        }
        attr {
          name: "T"
          type: "type"
          allowed_values {
            list {
              type: DT_FLOAT
              type: DT_DOUBLE
              type: DT_INT32
              type: DT_INT64
              type: DT_UINT8
              type: DT_INT16
              type: DT_INT8
              type: DT_UINT16
              type: DT_HALF
            }
          }
        }
      }
      op {
        name: "ReluGrad"
        input_arg {
          name: "gradients"
          type_attr: "T"
        }
        input_arg {
          name: "features"
          type_attr: "T"
        }
        output_arg {
          name: "backprops"
          type_attr: "T"
        }
        attr {
          name: "T"
          type: "type"
          allowed_values {
            list {
              type: DT_FLOAT
              type: DT_DOUBLE
              type: DT_INT32
              type: DT_INT64
              type: DT_UINT8
              type: DT_INT16
              type: DT_INT8
              type: DT_UINT16
              type: DT_HALF
            }
          }
        }
      }
      op {
        name: "Reshape"
        input_arg {
          name: "tensor"
          type_attr: "T"
        }
        input_arg {
          name: "shape"
          type_attr: "Tshape"
        }
        output_arg {
          name: "output"
          type_attr: "T"
        }
        attr {
          name: "T"
          type: "type"
        }
        attr {
          name: "Tshape"
          type: "type"
          default_value {
            type: DT_INT32
          }
          allowed_values {
            list {
              type: DT_INT32
              type: DT_INT64
            }
          }
        }
      }
      op {
        name: "RestoreV2"
        input_arg {
          name: "prefix"
          type: DT_STRING
        }
        input_arg {
          name: "tensor_names"
          type: DT_STRING
        }
        input_arg {
          name: "shape_and_slices"
          type: DT_STRING
        }
        output_arg {
          name: "tensors"
          type_list_attr: "dtypes"
        }
        attr {
          name: "dtypes"
          type: "list(type)"
          has_minimum: true
          minimum: 1
        }
        is_stateful: true
      }
      op {
        name: "SaveV2"
        input_arg {
          name: "prefix"
          type: DT_STRING
        }
        input_arg {
          name: "tensor_names"
          type: DT_STRING
        }
        input_arg {
          name: "shape_and_slices"
          type: DT_STRING
        }
        input_arg {
          name: "tensors"
          type_list_attr: "dtypes"
        }
        attr {
          name: "dtypes"
          type: "list(type)"
          has_minimum: true
          minimum: 1
        }
        is_stateful: true
      }
      op {
        name: "Shape"
        input_arg {
          name: "input"
          type_attr: "T"
        }
        output_arg {
          name: "output"
          type_attr: "out_type"
        }
        attr {
          name: "T"
          type: "type"
        }
        attr {
          name: "out_type"
          type: "type"
          default_value {
            type: DT_INT32
          }
          allowed_values {
            list {
              type: DT_INT32
              type: DT_INT64
            }
          }
        }
      }
      op {
        name: "ShapeN"
        input_arg {
          name: "input"
          type_attr: "T"
          number_attr: "N"
        }
        output_arg {
          name: "output"
          type_attr: "out_type"
          number_attr: "N"
        }
        attr {
          name: "N"
          type: "int"
          has_minimum: true
          minimum: 1
        }
        attr {
          name: "T"
          type: "type"
        }
        attr {
          name: "out_type"
          type: "type"
          default_value {
            type: DT_INT32
          }
          allowed_values {
            list {
              type: DT_INT32
              type: DT_INT64
            }
          }
        }
      }
      op {
        name: "ShardedFilename"
        input_arg {
          name: "basename"
          type: DT_STRING
        }
        input_arg {
          name: "shard"
          type: DT_INT32
        }
        input_arg {
          name: "num_shards"
          type: DT_INT32
        }
        output_arg {
          name: "filename"
          type: DT_STRING
        }
      }
      op {
        name: "Slice"
        input_arg {
          name: "input"
          type_attr: "T"
        }
        input_arg {
          name: "begin"
          type_attr: "Index"
        }
        input_arg {
          name: "size"
          type_attr: "Index"
        }
        output_arg {
          name: "output"
          type_attr: "T"
        }
        attr {
          name: "T"
          type: "type"
        }
        attr {
          name: "Index"
          type: "type"
          allowed_values {
            list {
              type: DT_INT32
              type: DT_INT64
            }
          }
        }
      }
      op {
        name: "SoftmaxCrossEntropyWithLogits"
        input_arg {
          name: "features"
          type_attr: "T"
        }
        input_arg {
          name: "labels"
          type_attr: "T"
        }
        output_arg {
          name: "loss"
          type_attr: "T"
        }
        output_arg {
          name: "backprop"
          type_attr: "T"
        }
        attr {
          name: "T"
          type: "type"
          allowed_values {
            list {
              type: DT_HALF
              type: DT_FLOAT
              type: DT_DOUBLE
            }
          }
        }
      }
      op {
        name: "StridedSlice"
        input_arg {
          name: "input"
          type_attr: "T"
        }
        input_arg {
          name: "begin"
          type_attr: "Index"
        }
        input_arg {
          name: "end"
          type_attr: "Index"
        }
        input_arg {
          name: "strides"
          type_attr: "Index"
        }
        output_arg {
          name: "output"
          type_attr: "T"
        }
        attr {
          name: "T"
          type: "type"
        }
        attr {
          name: "Index"
          type: "type"
          allowed_values {
            list {
              type: DT_INT32
              type: DT_INT64
            }
          }
        }
        attr {
          name: "begin_mask"
          type: "int"
          default_value {
            i: 0
          }
        }
        attr {
          name: "end_mask"
          type: "int"
          default_value {
            i: 0
          }
        }
        attr {
          name: "ellipsis_mask"
          type: "int"
          default_value {
            i: 0
          }
        }
        attr {
          name: "new_axis_mask"
          type: "int"
          default_value {
            i: 0
          }
        }
        attr {
          name: "shrink_axis_mask"
          type: "int"
          default_value {
            i: 0
          }
        }
      }
      op {
        name: "StringJoin"
        input_arg {
          name: "inputs"
          type: DT_STRING
          number_attr: "N"
        }
        output_arg {
          name: "output"
          type: DT_STRING
        }
        attr {
          name: "N"
          type: "int"
          has_minimum: true
          minimum: 1
        }
        attr {
          name: "separator"
          type: "string"
          default_value {
            s: ""
          }
        }
      }
      op {
        name: "Sub"
        input_arg {
          name: "x"
          type_attr: "T"
        }
        input_arg {
          name: "y"
          type_attr: "T"
        }
        output_arg {
          name: "z"
          type_attr: "T"
        }
        attr {
          name: "T"
          type: "type"
          allowed_values {
            list {
              type: DT_HALF
              type: DT_FLOAT
              type: DT_DOUBLE
              type: DT_UINT8
              type: DT_INT8
              type: DT_UINT16
              type: DT_INT16
              type: DT_INT32
              type: DT_INT64
              type: DT_COMPLEX64
              type: DT_COMPLEX128
            }
          }
        }
      }
      op {
        name: "Sum"
        input_arg {
          name: "input"
          type_attr: "T"
        }
        input_arg {
          name: "reduction_indices"
          type_attr: "Tidx"
        }
        output_arg {
          name: "output"
          type_attr: "T"
        }
        attr {
          name: "keep_dims"
          type: "bool"
          default_value {
            b: false
          }
        }
        attr {
          name: "T"
          type: "type"
          allowed_values {
            list {
              type: DT_FLOAT
              type: DT_DOUBLE
              type: DT_INT64
              type: DT_INT32
              type: DT_UINT8
              type: DT_UINT16
              type: DT_INT16
              type: DT_INT8
              type: DT_COMPLEX64
              type: DT_COMPLEX128
              type: DT_QINT8
              type: DT_QUINT8
              type: DT_QINT32
              type: DT_HALF
            }
          }
        }
        attr {
          name: "Tidx"
          type: "type"
          default_value {
            type: DT_INT32
          }
          allowed_values {
            list {
              type: DT_INT32
              type: DT_INT64
            }
          }
        }
      }
      op {
        name: "Tile"
        input_arg {
          name: "input"
          type_attr: "T"
        }
        input_arg {
          name: "multiples"
          type_attr: "Tmultiples"
        }
        output_arg {
          name: "output"
          type_attr: "T"
        }
        attr {
          name: "T"
          type: "type"
        }
        attr {
          name: "Tmultiples"
          type: "type"
          default_value {
            type: DT_INT32
          }
          allowed_values {
            list {
              type: DT_INT32
              type: DT_INT64
            }
          }
        }
      }
      op {
        name: "TruncatedNormal"
        input_arg {
          name: "shape"
          type_attr: "T"
        }
        output_arg {
          name: "output"
          type_attr: "dtype"
        }
        attr {
          name: "seed"
          type: "int"
          default_value {
            i: 0
          }
        }
        attr {
          name: "seed2"
          type: "int"
          default_value {
            i: 0
          }
        }
        attr {
          name: "dtype"
          type: "type"
          allowed_values {
            list {
              type: DT_HALF
              type: DT_FLOAT
              type: DT_DOUBLE
            }
          }
        }
        attr {
          name: "T"
          type: "type"
          allowed_values {
            list {
              type: DT_INT32
              type: DT_INT64
            }
          }
        }
        is_stateful: true
      }
      op {
        name: "VariableV2"
        output_arg {
          name: "ref"
          type_attr: "dtype"
          is_ref: true
        }
        attr {
          name: "shape"
          type: "shape"
        }
        attr {
          name: "dtype"
          type: "type"
        }
        attr {
          name: "container"
          type: "string"
          default_value {
            s: ""
          }
        }
        attr {
          name: "shared_name"
          type: "string"
          default_value {
            s: ""
          }
        }
        is_stateful: true
      }
      op {
        name: "ZerosLike"
        input_arg {
          name: "x"
          type_attr: "T"
        }
        output_arg {
          name: "y"
          type_attr: "T"
        }
        attr {
          name: "T"
          type: "type"
        }
      }
    }
    tags: "serve"
    tensorflow_version: "1.4.0"
    tensorflow_git_version: "v1.4.0-rc1-11-g130a514"
  }
  graph_def {
    node {
      name: "input_tensor"
      op: "Placeholder"
      attr {
        key: "_output_shapes"
        value {
          list {
            shape {
              dim {
                size: -1
              }
              dim {
                size: 32
              }
              dim {
                size: 32
              }
              dim {
                size: 1
              }
            }
          }
        }
      }
      attr {
        key: "dtype"
        value {
          type: DT_FLOAT
        }
      }
      attr {
        key: "shape"
        value {
          shape {
            dim {
              size: -1
            }
            dim {
              size: 32
            }
            dim {
              size: 32
            }
            dim {
              size: 1
            }
          }
        }
      }
    }
    node {
      name: "Placeholder"
      op: "Placeholder"
      attr {
        key: "_output_shapes"
        value {
          list {
            shape {
              unknown_rank: true
            }
          }
        }
      }
      attr {
        key: "dtype"
        value {
          type: DT_INT32
        }
      }
      attr {
        key: "shape"
        value {
          shape {
            unknown_rank: true
          }
        }
      }
    }
    node {
      name: "one_hot/on_value"
      op: "Const"
      attr {
        key: "_output_shapes"
        value {
          list {
            shape {
            }
          }
        }
      }
      attr {
        key: "dtype"
        value {
          type: DT_FLOAT
        }
      }
      attr {
        key: "value"
        value {
          tensor {
            dtype: DT_FLOAT
            tensor_shape {
            }
            float_val: 1.0
          }
        }
      }
    }
    node {
      name: "one_hot/off_value"
      op: "Const"
      attr {
        key: "_output_shapes"
        value {
          list {
            shape {
            }
          }
        }
      }
      attr {
        key: "dtype"
        value {
          type: DT_FLOAT
        }
      }
      attr {
        key: "value"
        value {
          tensor {
            dtype: DT_FLOAT
            tensor_shape {
            }
            float_val: 0.0
          }
        }
      }
    }
    node {
      name: "one_hot/depth"
      op: "Const"
      attr {
        key: "_output_shapes"
        value {
          list {
            shape {
            }
          }
        }
      }
      attr {
        key: "dtype"
        value {
          type: DT_INT32
        }
      }
      attr {
        key: "value"
        value {
          tensor {
            dtype: DT_INT32
            tensor_shape {
            }
            int_val: 43
          }
        }
      }
    }
    node {
      name: "one_hot"
      op: "OneHot"
      input: "Placeholder"
      input: "one_hot/depth"
      input: "one_hot/on_value"
      input: "one_hot/off_value"
      attr {
        key: "T"
        value {
          type: DT_FLOAT
        }
      }
      attr {
        key: "TI"
        value {
          type: DT_INT32
        }
      }
      attr {
        key: "_output_shapes"
        value {
          list {
            shape {
              unknown_rank: true
            }
          }
        }
      }
      attr {
        key: "axis"
        value {
          i: -1
        }
      }
    }
    node {
      name: "truncated_normal/shape"
      op: "Const"
      attr {
        key: "_output_shapes"
        value {
          list {
            shape {
              dim {
                size: 4
              }
            }
          }
        }
      }
      attr {
        key: "dtype"
        value {
          type: DT_INT32
        }
      }
      attr {
        key: "value"
        value {
          tensor {
            dtype: DT_INT32
            tensor_shape {
              dim {
                size: 4
              }
            }
            tensor_content: "\005\000\000\000\005\000\000\000\001\000\000\000\006\000\000\000"
          }
        }
      }
    }
    node {
      name: "truncated_normal/mean"
      op: "Const"
      attr {
        key: "_output_shapes"
        value {
          list {
            shape {
            }
          }
        }
      }
      attr {
        key: "dtype"
        value {
          type: DT_FLOAT
        }
      }
      attr {
        key: "value"
        value {
          tensor {
            dtype: DT_FLOAT
            tensor_shape {
            }
            float_val: 0.0
          }
        }
      }
    }
    node {
      name: "truncated_normal/stddev"
      op: "Const"
      attr {
        key: "_output_shapes"
        value {
          list {
            shape {
            }
          }
        }
      }
      attr {
        key: "dtype"
        value {
          type: DT_FLOAT
        }
      }
      attr {
        key: "value"
        value {
          tensor {
            dtype: DT_FLOAT
            tensor_shape {
            }
            float_val: 0.10000000149011612
          }
        }
      }
    }
    node {
      name: "truncated_normal/TruncatedNormal"
      op: "TruncatedNormal"
      input: "truncated_normal/shape"
      attr {
        key: "T"
        value {
          type: DT_INT32
        }
      }
      attr {
        key: "_output_shapes"
        value {
          list {
            shape {
              dim {
                size: 5
              }
              dim {
                size: 5
              }
              dim {
                size: 1
              }
              dim {
                size: 6
              }
            }
          }
        }
      }
      attr {
        key: "dtype"
        value {
          type: DT_FLOAT
        }
      }
      attr {
        key: "seed"
        value {
          i: 0
        }
      }
      attr {
        key: "seed2"
        value {
          i: 0
        }
      }
    }
    node {
      name: "truncated_normal/mul"
      op: "Mul"
      input: "truncated_normal/TruncatedNormal"
      input: "truncated_normal/stddev"
      attr {
        key: "T"
        value {
          type: DT_FLOAT
        }
      }
      attr {
        key: "_output_shapes"
        value {
          list {
            shape {
              dim {
                size: 5
              }
              dim {
                size: 5
              }
              dim {
                size: 1
              }
              dim {
                size: 6
              }
            }
          }
        }
      }
    }
    node {
      name: "truncated_normal"
      op: "Add"
      input: "truncated_normal/mul"
      input: "truncated_normal/mean"
      attr {
        key: "T"
        value {
          type: DT_FLOAT
        }
      }
      attr {
        key: "_output_shapes"
        value {
          list {
            shape {
              dim {
                size: 5
              }
              dim {
                size: 5
              }
              dim {
                size: 1
              }
              dim {
                size: 6
              }
            }
          }
        }
      }
    }
    node {
      name: "Variable"
      op: "VariableV2"
      attr {
        key: "_output_shapes"
        value {
          list {
            shape {
              dim {
                size: 5
              }
              dim {
                size: 5
              }
              dim {
                size: 1
              }
              dim {
                size: 6
              }
            }
          }
        }
      }
      attr {
        key: "container"
        value {
          s: ""
        }
      }
      attr {
        key: "dtype"
        value {
          type: DT_FLOAT
        }
      }
      attr {
        key: "shape"
        value {
          shape {
            dim {
              size: 5
            }
            dim {
              size: 5
            }
            dim {
              size: 1
            }
            dim {
              size: 6
            }
          }
        }
      }
      attr {
        key: "shared_name"
        value {
          s: ""
        }
      }
    }
    node {
      name: "Variable/Assign"
      op: "Assign"
      input: "Variable"
      input: "truncated_normal"
      attr {
        key: "T"
        value {
          type: DT_FLOAT
        }
      }
      attr {
        key: "_class"
        value {
          list {
            s: "loc:@Variable"
          }
        }
      }
      attr {
        key: "_output_shapes"
        value {
          list {
            shape {
              dim {
                size: 5
              }
              dim {
                size: 5
              }
              dim {
                size: 1
              }
              dim {
                size: 6
              }
            }
          }
        }
      }
      attr {
        key: "use_locking"
        value {
          b: true
        }
      }
      attr {
        key: "validate_shape"
        value {
          b: true
        }
      }
    }
    node {
      name: "Variable/read"
      op: "Identity"
      input: "Variable"
      attr {
        key: "T"
        value {
          type: DT_FLOAT
        }
      }
      attr {
        key: "_class"
        value {
          list {
            s: "loc:@Variable"
          }
        }
      }
      attr {
        key: "_output_shapes"
        value {
          list {
            shape {
              dim {
                size: 5
              }
              dim {
                size: 5
              }
              dim {
                size: 1
              }
              dim {
                size: 6
              }
            }
          }
        }
      }
    }
    node {
      name: "zeros"
      op: "Const"
      attr {
        key: "_output_shapes"
        value {
          list {
            shape {
              dim {
                size: 6
              }
            }
          }
        }
      }
      attr {
        key: "dtype"
        value {
          type: DT_FLOAT
        }
      }
      attr {
        key: "value"
        value {
          tensor {
            dtype: DT_FLOAT
            tensor_shape {
              dim {
                size: 6
              }
            }
            float_val: 0.0
          }
        }
      }
    }
    node {
      name: "Variable_1"
      op: "VariableV2"
      attr {
        key: "_output_shapes"
        value {
          list {
            shape {
              dim {
                size: 6
              }
            }
          }
        }
      }
      attr {
        key: "container"
        value {
          s: ""
        }
      }
      attr {
        key: "dtype"
        value {
          type: DT_FLOAT
        }
      }
      attr {
        key: "shape"
        value {
          shape {
            dim {
              size: 6
            }
          }
        }
      }
      attr {
        key: "shared_name"
        value {
          s: ""
        }
      }
    }
    node {
      name: "Variable_1/Assign"
      op: "Assign"
      input: "Variable_1"
      input: "zeros"
      attr {
        key: "T"
        value {
          type: DT_FLOAT
        }
      }
      attr {
        key: "_class"
        value {
          list {
            s: "loc:@Variable_1"
          }
        }
      }
      attr {
        key: "_output_shapes"
        value {
          list {
            shape {
              dim {
                size: 6
              }
            }
          }
        }
      }
      attr {
        key: "use_locking"
        value {
          b: true
        }
      }
      attr {
        key: "validate_shape"
        value {
          b: true
        }
      }
    }
    node {
      name: "Variable_1/read"
      op: "Identity"
      input: "Variable_1"
      attr {
        key: "T"
        value {
          type: DT_FLOAT
        }
      }
      attr {
        key: "_class"
        value {
          list {
            s: "loc:@Variable_1"
          }
        }
      }
      attr {
        key: "_output_shapes"
        value {
          list {
            shape {
              dim {
                size: 6
              }
            }
          }
        }
      }
    }
    node {
      name: "Conv2D"
      op: "Conv2D"
      input: "input_tensor"
      input: "Variable/read"
      attr {
        key: "T"
        value {
          type: DT_FLOAT
        }
      }
      attr {
        key: "_output_shapes"
        value {
          list {
            shape {
              dim {
                size: -1
              }
              dim {
                size: 28
              }
              dim {
                size: 28
              }
              dim {
                size: 6
              }
            }
          }
        }
      }
      attr {
        key: "data_format"
        value {
          s: "NHWC"
        }
      }
      attr {
        key: "padding"
        value {
          s: "VALID"
        }
      }
      attr {
        key: "strides"
        value {
          list {
            i: 1
            i: 1
            i: 1
            i: 1
          }
        }
      }
      attr {
        key: "use_cudnn_on_gpu"
        value {
          b: true
        }
      }
    }
    node {
      name: "add"
      op: "Add"
      input: "Conv2D"
      input: "Variable_1/read"
      attr {
        key: "T"
        value {
          type: DT_FLOAT
        }
      }
      attr {
        key: "_output_shapes"
        value {
          list {
            shape {
              dim {
                size: -1
              }
              dim {
                size: 28
              }
              dim {
                size: 28
              }
              dim {
                size: 6
              }
            }
          }
        }
      }
    }
    node {
      name: "Relu"
      op: "Relu"
      input: "add"
      attr {
        key: "T"
        value {
          type: DT_FLOAT
        }
      }
      attr {
        key: "_output_shapes"
        value {
          list {
            shape {
              dim {
                size: -1
              }
              dim {
                size: 28
              }
              dim {
                size: 28
              }
              dim {
                size: 6
              }
            }
          }
        }
      }
    }
    node {
      name: "AvgPool"
      op: "AvgPool"
      input: "Relu"
      attr {
        key: "T"
        value {
          type: DT_FLOAT
        }
      }
      attr {
        key: "_output_shapes"
        value {
          list {
            shape {
              dim {
                size: -1
              }
              dim {
                size: 14
              }
              dim {
                size: 14
              }
              dim {
                size: 6
              }
            }
          }
        }
      }
      attr {
        key: "data_format"
        value {
          s: "NHWC"
        }
      }
      attr {
        key: "ksize"
        value {
          list {
            i: 1
            i: 2
            i: 2
            i: 1
          }
        }
      }
      attr {
        key: "padding"
        value {
          s: "VALID"
        }
      }
      attr {
        key: "strides"
        value {
          list {
            i: 1
            i: 2
            i: 2
            i: 1
          }
        }
      }
    }
    node {
      name: "truncated_normal_1/shape"
      op: "Const"
      attr {
        key: "_output_shapes"
        value {
          list {
            shape {
              dim {
                size: 4
              }
            }
          }
        }
      }
      attr {
        key: "dtype"
        value {
          type: DT_INT32
        }
      }
      attr {
        key: "value"
        value {
          tensor {
            dtype: DT_INT32
            tensor_shape {
              dim {
                size: 4
              }
            }
            tensor_content: "\005\000\000\000\005\000\000\000\006\000\000\000\020\000\000\000"
          }
        }
      }
    }
    node {
      name: "truncated_normal_1/mean"
      op: "Const"
      attr {
        key: "_output_shapes"
        value {
          list {
            shape {
            }
          }
        }
      }
      attr {
        key: "dtype"
        value {
          type: DT_FLOAT
        }
      }
      attr {
        key: "value"
        value {
          tensor {
            dtype: DT_FLOAT
            tensor_shape {
            }
            float_val: 0.0
          }
        }
      }
    }
    node {
      name: "truncated_normal_1/stddev"
      op: "Const"
      attr {
        key: "_output_shapes"
        value {
          list {
            shape {
            }
          }
        }
      }
      attr {
        key: "dtype"
        value {
          type: DT_FLOAT
        }
      }
      attr {
        key: "value"
        value {
          tensor {
            dtype: DT_FLOAT
            tensor_shape {
            }
            float_val: 0.10000000149011612
          }
        }
      }
    }
    node {
      name: "truncated_normal_1/TruncatedNormal"
      op: "TruncatedNormal"
      input: "truncated_normal_1/shape"
      attr {
        key: "T"
        value {
          type: DT_INT32
        }
      }
      attr {
        key: "_output_shapes"
        value {
          list {
            shape {
              dim {
                size: 5
              }
              dim {
                size: 5
              }
              dim {
                size: 6
              }
              dim {
                size: 16
              }
            }
          }
        }
      }
      attr {
        key: "dtype"
        value {
          type: DT_FLOAT
        }
      }
      attr {
        key: "seed"
        value {
          i: 0
        }
      }
      attr {
        key: "seed2"
        value {
          i: 0
        }
      }
    }
    node {
      name: "truncated_normal_1/mul"
      op: "Mul"
      input: "truncated_normal_1/TruncatedNormal"
      input: "truncated_normal_1/stddev"
      attr {
        key: "T"
        value {
          type: DT_FLOAT
        }
      }
      attr {
        key: "_output_shapes"
        value {
          list {
            shape {
              dim {
                size: 5
              }
              dim {
                size: 5
              }
              dim {
                size: 6
              }
              dim {
                size: 16
              }
            }
          }
        }
      }
    }
    node {
      name: "truncated_normal_1"
      op: "Add"
      input: "truncated_normal_1/mul"
      input: "truncated_normal_1/mean"
      attr {
        key: "T"
        value {
          type: DT_FLOAT
        }
      }
      attr {
        key: "_output_shapes"
        value {
          list {
            shape {
              dim {
                size: 5
              }
              dim {
                size: 5
              }
              dim {
                size: 6
              }
              dim {
                size: 16
              }
            }
          }
        }
      }
    }
    node {
      name: "Variable_2"
      op: "VariableV2"
      attr {
        key: "_output_shapes"
        value {
          list {
            shape {
              dim {
                size: 5
              }
              dim {
                size: 5
              }
              dim {
                size: 6
              }
              dim {
                size: 16
              }
            }
          }
        }
      }
      attr {
        key: "container"
        value {
          s: ""
        }
      }
      attr {
        key: "dtype"
        value {
          type: DT_FLOAT
        }
      }
      attr {
        key: "shape"
        value {
          shape {
            dim {
              size: 5
            }
            dim {
              size: 5
            }
            dim {
              size: 6
            }
            dim {
              size: 16
            }
          }
        }
      }
      attr {
        key: "shared_name"
        value {
          s: ""
        }
      }
    }
    node {
      name: "Variable_2/Assign"
      op: "Assign"
      input: "Variable_2"
      input: "truncated_normal_1"
      attr {
        key: "T"
        value {
          type: DT_FLOAT
        }
      }
      attr {
        key: "_class"
        value {
          list {
            s: "loc:@Variable_2"
          }
        }
      }
      attr {
        key: "_output_shapes"
        value {
          list {
            shape {
              dim {
                size: 5
              }
              dim {
                size: 5
              }
              dim {
                size: 6
              }
              dim {
                size: 16
              }
            }
          }
        }
      }
      attr {
        key: "use_locking"
        value {
          b: true
        }
      }
      attr {
        key: "validate_shape"
        value {
          b: true
        }
      }
    }
    node {
      name: "Variable_2/read"
      op: "Identity"
      input: "Variable_2"
      attr {
        key: "T"
        value {
          type: DT_FLOAT
        }
      }
      attr {
        key: "_class"
        value {
          list {
            s: "loc:@Variable_2"
          }
        }
      }
      attr {
        key: "_output_shapes"
        value {
          list {
            shape {
              dim {
                size: 5
              }
              dim {
                size: 5
              }
              dim {
                size: 6
              }
              dim {
                size: 16
              }
            }
          }
        }
      }
    }
    node {
      name: "zeros_1"
      op: "Const"
      attr {
        key: "_output_shapes"
        value {
          list {
            shape {
              dim {
                size: 16
              }
            }
          }
        }
      }
      attr {
        key: "dtype"
        value {
          type: DT_FLOAT
        }
      }
      attr {
        key: "value"
        value {
          tensor {
            dtype: DT_FLOAT
            tensor_shape {
              dim {
                size: 16
              }
            }
            float_val: 0.0
          }
        }
      }
    }
    node {
      name: "Variable_3"
      op: "VariableV2"
      attr {
        key: "_output_shapes"
        value {
          list {
            shape {
              dim {
                size: 16
              }
            }
          }
        }
      }
      attr {
        key: "container"
        value {
          s: ""
        }
      }
      attr {
        key: "dtype"
        value {
          type: DT_FLOAT
        }
      }
      attr {
        key: "shape"
        value {
          shape {
            dim {
              size: 16
            }
          }
        }
      }
      attr {
        key: "shared_name"
        value {
          s: ""
        }
      }
    }
    node {
      name: "Variable_3/Assign"
      op: "Assign"
      input: "Variable_3"
      input: "zeros_1"
      attr {
        key: "T"
        value {
          type: DT_FLOAT
        }
      }
      attr {
        key: "_class"
        value {
          list {
            s: "loc:@Variable_3"
          }
        }
      }
      attr {
        key: "_output_shapes"
        value {
          list {
            shape {
              dim {
                size: 16
              }
            }
          }
        }
      }
      attr {
        key: "use_locking"
        value {
          b: true
        }
      }
      attr {
        key: "validate_shape"
        value {
          b: true
        }
      }
    }
    node {
      name: "Variable_3/read"
      op: "Identity"
      input: "Variable_3"
      attr {
        key: "T"
        value {
          type: DT_FLOAT
        }
      }
      attr {
        key: "_class"
        value {
          list {
            s: "loc:@Variable_3"
          }
        }
      }
      attr {
        key: "_output_shapes"
        value {
          list {
            shape {
              dim {
                size: 16
              }
            }
          }
        }
      }
    }
    node {
      name: "Conv2D_1"
      op: "Conv2D"
      input: "AvgPool"
      input: "Variable_2/read"
      attr {
        key: "T"
        value {
          type: DT_FLOAT
        }
      }
      attr {
        key: "_output_shapes"
        value {
          list {
            shape {
              dim {
                size: -1
              }
              dim {
                size: 10
              }
              dim {
                size: 10
              }
              dim {
                size: 16
              }
            }
          }
        }
      }
      attr {
        key: "data_format"
        value {
          s: "NHWC"
        }
      }
      attr {
        key: "padding"
        value {
          s: "VALID"
        }
      }
      attr {
        key: "strides"
        value {
          list {
            i: 1
            i: 1
            i: 1
            i: 1
          }
        }
      }
      attr {
        key: "use_cudnn_on_gpu"
        value {
          b: true
        }
      }
    }
    node {
      name: "add_1"
      op: "Add"
      input: "Conv2D_1"
      input: "Variable_3/read"
      attr {
        key: "T"
        value {
          type: DT_FLOAT
        }
      }
      attr {
        key: "_output_shapes"
        value {
          list {
            shape {
              dim {
                size: -1
              }
              dim {
                size: 10
              }
              dim {
                size: 10
              }
              dim {
                size: 16
              }
            }
          }
        }
      }
    }
    node {
      name: "Relu_1"
      op: "Relu"
      input: "add_1"
      attr {
        key: "T"
        value {
          type: DT_FLOAT
        }
      }
      attr {
        key: "_output_shapes"
        value {
          list {
            shape {
              dim {
                size: -1
              }
              dim {
                size: 10
              }
              dim {
                size: 10
              }
              dim {
                size: 16
              }
            }
          }
        }
      }
    }
    node {
      name: "AvgPool_1"
      op: "AvgPool"
      input: "Relu_1"
      attr {
        key: "T"
        value {
          type: DT_FLOAT
        }
      }
      attr {
        key: "_output_shapes"
        value {
          list {
            shape {
              dim {
                size: -1
              }
              dim {
                size: 5
              }
              dim {
                size: 5
              }
              dim {
                size: 16
              }
            }
          }
        }
      }
      attr {
        key: "data_format"
        value {
          s: "NHWC"
        }
      }
      attr {
        key: "ksize"
        value {
          list {
            i: 1
            i: 2
            i: 2
            i: 1
          }
        }
      }
      attr {
        key: "padding"
        value {
          s: "VALID"
        }
      }
      attr {
        key: "strides"
        value {
          list {
            i: 1
            i: 2
            i: 2
            i: 1
          }
        }
      }
    }
    node {
      name: "Flatten/flatten/Shape"
      op: "Shape"
      input: "AvgPool_1"
      attr {
        key: "T"
        value {
          type: DT_FLOAT
        }
      }
      attr {
        key: "_output_shapes"
        value {
          list {
            shape {
              dim {
                size: 4
              }
            }
          }
        }
      }
      attr {
        key: "out_type"
        value {
          type: DT_INT32
        }
      }
    }
    node {
      name: "Flatten/flatten/strided_slice/stack"
      op: "Const"
      attr {
        key: "_output_shapes"
        value {
          list {
            shape {
              dim {
                size: 1
              }
            }
          }
        }
      }
      attr {
        key: "dtype"
        value {
          type: DT_INT32
        }
      }
      attr {
        key: "value"
        value {
          tensor {
            dtype: DT_INT32
            tensor_shape {
              dim {
                size: 1
              }
            }
            int_val: 0
          }
        }
      }
    }
    node {
      name: "Flatten/flatten/strided_slice/stack_1"
      op: "Const"
      attr {
        key: "_output_shapes"
        value {
          list {
            shape {
              dim {
                size: 1
              }
            }
          }
        }
      }
      attr {
        key: "dtype"
        value {
          type: DT_INT32
        }
      }
      attr {
        key: "value"
        value {
          tensor {
            dtype: DT_INT32
            tensor_shape {
              dim {
                size: 1
              }
            }
            int_val: 1
          }
        }
      }
    }
    node {
      name: "Flatten/flatten/strided_slice/stack_2"
      op: "Const"
      attr {
        key: "_output_shapes"
        value {
          list {
            shape {
              dim {
                size: 1
              }
            }
          }
        }
      }
      attr {
        key: "dtype"
        value {
          type: DT_INT32
        }
      }
      attr {
        key: "value"
        value {
          tensor {
            dtype: DT_INT32
            tensor_shape {
              dim {
                size: 1
              }
            }
            int_val: 1
          }
        }
      }
    }
    node {
      name: "Flatten/flatten/strided_slice"
      op: "StridedSlice"
      input: "Flatten/flatten/Shape"
      input: "Flatten/flatten/strided_slice/stack"
      input: "Flatten/flatten/strided_slice/stack_1"
      input: "Flatten/flatten/strided_slice/stack_2"
      attr {
        key: "Index"
        value {
          type: DT_INT32
        }
      }
      attr {
        key: "T"
        value {
          type: DT_INT32
        }
      }
      attr {
        key: "_output_shapes"
        value {
          list {
            shape {
            }
          }
        }
      }
      attr {
        key: "begin_mask"
        value {
          i: 0
        }
      }
      attr {
        key: "ellipsis_mask"
        value {
          i: 0
        }
      }
      attr {
        key: "end_mask"
        value {
          i: 0
        }
      }
      attr {
        key: "new_axis_mask"
        value {
          i: 0
        }
      }
      attr {
        key: "shrink_axis_mask"
        value {
          i: 1
        }
      }
    }
    node {
      name: "Flatten/flatten/Reshape/shape/1"
      op: "Const"
      attr {
        key: "_output_shapes"
        value {
          list {
            shape {
            }
          }
        }
      }
      attr {
        key: "dtype"
        value {
          type: DT_INT32
        }
      }
      attr {
        key: "value"
        value {
          tensor {
            dtype: DT_INT32
            tensor_shape {
            }
            int_val: -1
          }
        }
      }
    }
    node {
      name: "Flatten/flatten/Reshape/shape"
      op: "Pack"
      input: "Flatten/flatten/strided_slice"
      input: "Flatten/flatten/Reshape/shape/1"
      attr {
        key: "N"
        value {
          i: 2
        }
      }
      attr {
        key: "T"
        value {
          type: DT_INT32
        }
      }
      attr {
        key: "_output_shapes"
        value {
          list {
            shape {
              dim {
                size: 2
              }
            }
          }
        }
      }
      attr {
        key: "axis"
        value {
          i: 0
        }
      }
    }
    node {
      name: "Flatten/flatten/Reshape"
      op: "Reshape"
      input: "AvgPool_1"
      input: "Flatten/flatten/Reshape/shape"
      attr {
        key: "T"
        value {
          type: DT_FLOAT
        }
      }
      attr {
        key: "Tshape"
        value {
          type: DT_INT32
        }
      }
      attr {
        key: "_output_shapes"
        value {
          list {
            shape {
              dim {
                size: -1
              }
              dim {
                size: 400
              }
            }
          }
        }
      }
    }
    node {
      name: "truncated_normal_2/shape"
      op: "Const"
      attr {
        key: "_output_shapes"
        value {
          list {
            shape {
              dim {
                size: 2
              }
            }
          }
        }
      }
      attr {
        key: "dtype"
        value {
          type: DT_INT32
        }
      }
      attr {
        key: "value"
        value {
          tensor {
            dtype: DT_INT32
            tensor_shape {
              dim {
                size: 2
              }
            }
            tensor_content: "\220\001\000\000x\000\000\000"
          }
        }
      }
    }
    node {
      name: "truncated_normal_2/mean"
      op: "Const"
      attr {
        key: "_output_shapes"
        value {
          list {
            shape {
            }
          }
        }
      }
      attr {
        key: "dtype"
        value {
          type: DT_FLOAT
        }
      }
      attr {
        key: "value"
        value {
          tensor {
            dtype: DT_FLOAT
            tensor_shape {
            }
            float_val: 0.0
          }
        }
      }
    }
    node {
      name: "truncated_normal_2/stddev"
      op: "Const"
      attr {
        key: "_output_shapes"
        value {
          list {
            shape {
            }
          }
        }
      }
      attr {
        key: "dtype"
        value {
          type: DT_FLOAT
        }
      }
      attr {
        key: "value"
        value {
          tensor {
            dtype: DT_FLOAT
            tensor_shape {
            }
            float_val: 0.10000000149011612
          }
        }
      }
    }
    node {
      name: "truncated_normal_2/TruncatedNormal"
      op: "TruncatedNormal"
      input: "truncated_normal_2/shape"
      attr {
        key: "T"
        value {
          type: DT_INT32
        }
      }
      attr {
        key: "_output_shapes"
        value {
          list {
            shape {
              dim {
                size: 400
              }
              dim {
                size: 120
              }
            }
          }
        }
      }
      attr {
        key: "dtype"
        value {
          type: DT_FLOAT
        }
      }
      attr {
        key: "seed"
        value {
          i: 0
        }
      }
      attr {
        key: "seed2"
        value {
          i: 0
        }
      }
    }
    node {
      name: "truncated_normal_2/mul"
      op: "Mul"
      input: "truncated_normal_2/TruncatedNormal"
      input: "truncated_normal_2/stddev"
      attr {
        key: "T"
        value {
          type: DT_FLOAT
        }
      }
      attr {
        key: "_output_shapes"
        value {
          list {
            shape {
              dim {
                size: 400
              }
              dim {
                size: 120
              }
            }
          }
        }
      }
    }
    node {
      name: "truncated_normal_2"
      op: "Add"
      input: "truncated_normal_2/mul"
      input: "truncated_normal_2/mean"
      attr {
        key: "T"
        value {
          type: DT_FLOAT
        }
      }
      attr {
        key: "_output_shapes"
        value {
          list {
            shape {
              dim {
                size: 400
              }
              dim {
                size: 120
              }
            }
          }
        }
      }
    }
    node {
      name: "Variable_4"
      op: "VariableV2"
      attr {
        key: "_output_shapes"
        value {
          list {
            shape {
              dim {
                size: 400
              }
              dim {
                size: 120
              }
            }
          }
        }
      }
      attr {
        key: "container"
        value {
          s: ""
        }
      }
      attr {
        key: "dtype"
        value {
          type: DT_FLOAT
        }
      }
      attr {
        key: "shape"
        value {
          shape {
            dim {
              size: 400
            }
            dim {
              size: 120
            }
          }
        }
      }
      attr {
        key: "shared_name"
        value {
          s: ""
        }
      }
    }
    node {
      name: "Variable_4/Assign"
      op: "Assign"
      input: "Variable_4"
      input: "truncated_normal_2"
      attr {
        key: "T"
        value {
          type: DT_FLOAT
        }
      }
      attr {
        key: "_class"
        value {
          list {
            s: "loc:@Variable_4"
          }
        }
      }
      attr {
        key: "_output_shapes"
        value {
          list {
            shape {
              dim {
                size: 400
              }
              dim {
                size: 120
              }
            }
          }
        }
      }
      attr {
        key: "use_locking"
        value {
          b: true
        }
      }
      attr {
        key: "validate_shape"
        value {
          b: true
        }
      }
    }
    node {
      name: "Variable_4/read"
      op: "Identity"
      input: "Variable_4"
      attr {
        key: "T"
        value {
          type: DT_FLOAT
        }
      }
      attr {
        key: "_class"
        value {
          list {
            s: "loc:@Variable_4"
          }
        }
      }
      attr {
        key: "_output_shapes"
        value {
          list {
            shape {
              dim {
                size: 400
              }
              dim {
                size: 120
              }
            }
          }
        }
      }
    }
    node {
      name: "zeros_2"
      op: "Const"
      attr {
        key: "_output_shapes"
        value {
          list {
            shape {
              dim {
                size: 120
              }
            }
          }
        }
      }
      attr {
        key: "dtype"
        value {
          type: DT_FLOAT
        }
      }
      attr {
        key: "value"
        value {
          tensor {
            dtype: DT_FLOAT
            tensor_shape {
              dim {
                size: 120
              }
            }
            float_val: 0.0
          }
        }
      }
    }
    node {
      name: "Variable_5"
      op: "VariableV2"
      attr {
        key: "_output_shapes"
        value {
          list {
            shape {
              dim {
                size: 120
              }
            }
          }
        }
      }
      attr {
        key: "container"
        value {
          s: ""
        }
      }
      attr {
        key: "dtype"
        value {
          type: DT_FLOAT
        }
      }
      attr {
        key: "shape"
        value {
          shape {
            dim {
              size: 120
            }
          }
        }
      }
      attr {
        key: "shared_name"
        value {
          s: ""
        }
      }
    }
    node {
      name: "Variable_5/Assign"
      op: "Assign"
      input: "Variable_5"
      input: "zeros_2"
      attr {
        key: "T"
        value {
          type: DT_FLOAT
        }
      }
      attr {
        key: "_class"
        value {
          list {
            s: "loc:@Variable_5"
          }
        }
      }
      attr {
        key: "_output_shapes"
        value {
          list {
            shape {
              dim {
                size: 120
              }
            }
          }
        }
      }
      attr {
        key: "use_locking"
        value {
          b: true
        }
      }
      attr {
        key: "validate_shape"
        value {
          b: true
        }
      }
    }
    node {
      name: "Variable_5/read"
      op: "Identity"
      input: "Variable_5"
      attr {
        key: "T"
        value {
          type: DT_FLOAT
        }
      }
      attr {
        key: "_class"
        value {
          list {
            s: "loc:@Variable_5"
          }
        }
      }
      attr {
        key: "_output_shapes"
        value {
          list {
            shape {
              dim {
                size: 120
              }
            }
          }
        }
      }
    }
    node {
      name: "MatMul"
      op: "MatMul"
      input: "Flatten/flatten/Reshape"
      input: "Variable_4/read"
      attr {
        key: "T"
        value {
          type: DT_FLOAT
        }
      }
      attr {
        key: "_output_shapes"
        value {
          list {
            shape {
              dim {
                size: -1
              }
              dim {
                size: 120
              }
            }
          }
        }
      }
      attr {
        key: "transpose_a"
        value {
          b: false
        }
      }
      attr {
        key: "transpose_b"
        value {
          b: false
        }
      }
    }
    node {
      name: "add_2"
      op: "Add"
      input: "MatMul"
      input: "Variable_5/read"
      attr {
        key: "T"
        value {
          type: DT_FLOAT
        }
      }
      attr {
        key: "_output_shapes"
        value {
          list {
            shape {
              dim {
                size: -1
              }
              dim {
                size: 120
              }
            }
          }
        }
      }
    }
    node {
      name: "Relu_2"
      op: "Relu"
      input: "add_2"
      attr {
        key: "T"
        value {
          type: DT_FLOAT
        }
      }
      attr {
        key: "_output_shapes"
        value {
          list {
            shape {
              dim {
                size: -1
              }
              dim {
                size: 120
              }
            }
          }
        }
      }
    }
    node {
      name: "truncated_normal_3/shape"
      op: "Const"
      attr {
        key: "_output_shapes"
        value {
          list {
            shape {
              dim {
                size: 2
              }
            }
          }
        }
      }
      attr {
        key: "dtype"
        value {
          type: DT_INT32
        }
      }
      attr {
        key: "value"
        value {
          tensor {
            dtype: DT_INT32
            tensor_shape {
              dim {
                size: 2
              }
            }
            tensor_content: "x\000\000\000T\000\000\000"
          }
        }
      }
    }
    node {
      name: "truncated_normal_3/mean"
      op: "Const"
      attr {
        key: "_output_shapes"
        value {
          list {
            shape {
            }
          }
        }
      }
      attr {
        key: "dtype"
        value {
          type: DT_FLOAT
        }
      }
      attr {
        key: "value"
        value {
          tensor {
            dtype: DT_FLOAT
            tensor_shape {
            }
            float_val: 0.0
          }
        }
      }
    }
    node {
      name: "truncated_normal_3/stddev"
      op: "Const"
      attr {
        key: "_output_shapes"
        value {
          list {
            shape {
            }
          }
        }
      }
      attr {
        key: "dtype"
        value {
          type: DT_FLOAT
        }
      }
      attr {
        key: "value"
        value {
          tensor {
            dtype: DT_FLOAT
            tensor_shape {
            }
            float_val: 0.10000000149011612
          }
        }
      }
    }
    node {
      name: "truncated_normal_3/TruncatedNormal"
      op: "TruncatedNormal"
      input: "truncated_normal_3/shape"
      attr {
        key: "T"
        value {
          type: DT_INT32
        }
      }
      attr {
        key: "_output_shapes"
        value {
          list {
            shape {
              dim {
                size: 120
              }
              dim {
                size: 84
              }
            }
          }
        }
      }
      attr {
        key: "dtype"
        value {
          type: DT_FLOAT
        }
      }
      attr {
        key: "seed"
        value {
          i: 0
        }
      }
      attr {
        key: "seed2"
        value {
          i: 0
        }
      }
    }
    node {
      name: "truncated_normal_3/mul"
      op: "Mul"
      input: "truncated_normal_3/TruncatedNormal"
      input: "truncated_normal_3/stddev"
      attr {
        key: "T"
        value {
          type: DT_FLOAT
        }
      }
      attr {
        key: "_output_shapes"
        value {
          list {
            shape {
              dim {
                size: 120
              }
              dim {
                size: 84
              }
            }
          }
        }
      }
    }
    node {
      name: "truncated_normal_3"
      op: "Add"
      input: "truncated_normal_3/mul"
      input: "truncated_normal_3/mean"
      attr {
        key: "T"
        value {
          type: DT_FLOAT
        }
      }
      attr {
        key: "_output_shapes"
        value {
          list {
            shape {
              dim {
                size: 120
              }
              dim {
                size: 84
              }
            }
          }
        }
      }
    }
    node {
      name: "Variable_6"
      op: "VariableV2"
      attr {
        key: "_output_shapes"
        value {
          list {
            shape {
              dim {
                size: 120
              }
              dim {
                size: 84
              }
            }
          }
        }
      }
      attr {
        key: "container"
        value {
          s: ""
        }
      }
      attr {
        key: "dtype"
        value {
          type: DT_FLOAT
        }
      }
      attr {
        key: "shape"
        value {
          shape {
            dim {
              size: 120
            }
            dim {
              size: 84
            }
          }
        }
      }
      attr {
        key: "shared_name"
        value {
          s: ""
        }
      }
    }
    node {
      name: "Variable_6/Assign"
      op: "Assign"
      input: "Variable_6"
      input: "truncated_normal_3"
      attr {
        key: "T"
        value {
          type: DT_FLOAT
        }
      }
      attr {
        key: "_class"
        value {
          list {
            s: "loc:@Variable_6"
          }
        }
      }
      attr {
        key: "_output_shapes"
        value {
          list {
            shape {
              dim {
                size: 120
              }
              dim {
                size: 84
              }
            }
          }
        }
      }
      attr {
        key: "use_locking"
        value {
          b: true
        }
      }
      attr {
        key: "validate_shape"
        value {
          b: true
        }
      }
    }
    node {
      name: "Variable_6/read"
      op: "Identity"
      input: "Variable_6"
      attr {
        key: "T"
        value {
          type: DT_FLOAT
        }
      }
      attr {
        key: "_class"
        value {
          list {
            s: "loc:@Variable_6"
          }
        }
      }
      attr {
        key: "_output_shapes"
        value {
          list {
            shape {
              dim {
                size: 120
              }
              dim {
                size: 84
              }
            }
          }
        }
      }
    }
    node {
      name: "zeros_3"
      op: "Const"
      attr {
        key: "_output_shapes"
        value {
          list {
            shape {
              dim {
                size: 84
              }
            }
          }
        }
      }
      attr {
        key: "dtype"
        value {
          type: DT_FLOAT
        }
      }
      attr {
        key: "value"
        value {
          tensor {
            dtype: DT_FLOAT
            tensor_shape {
              dim {
                size: 84
              }
            }
            float_val: 0.0
          }
        }
      }
    }
    node {
      name: "Variable_7"
      op: "VariableV2"
      attr {
        key: "_output_shapes"
        value {
          list {
            shape {
              dim {
                size: 84
              }
            }
          }
        }
      }
      attr {
        key: "container"
        value {
          s: ""
        }
      }
      attr {
        key: "dtype"
        value {
          type: DT_FLOAT
        }
      }
      attr {
        key: "shape"
        value {
          shape {
            dim {
              size: 84
            }
          }
        }
      }
      attr {
        key: "shared_name"
        value {
          s: ""
        }
      }
    }
    node {
      name: "Variable_7/Assign"
      op: "Assign"
      input: "Variable_7"
      input: "zeros_3"
      attr {
        key: "T"
        value {
          type: DT_FLOAT
        }
      }
      attr {
        key: "_class"
        value {
          list {
            s: "loc:@Variable_7"
          }
        }
      }
      attr {
        key: "_output_shapes"
        value {
          list {
            shape {
              dim {
                size: 84
              }
            }
          }
        }
      }
      attr {
        key: "use_locking"
        value {
          b: true
        }
      }
      attr {
        key: "validate_shape"
        value {
          b: true
        }
      }
    }
    node {
      name: "Variable_7/read"
      op: "Identity"
      input: "Variable_7"
      attr {
        key: "T"
        value {
          type: DT_FLOAT
        }
      }
      attr {
        key: "_class"
        value {
          list {
            s: "loc:@Variable_7"
          }
        }
      }
      attr {
        key: "_output_shapes"
        value {
          list {
            shape {
              dim {
                size: 84
              }
            }
          }
        }
      }
    }
    node {
      name: "MatMul_1"
      op: "MatMul"
      input: "Relu_2"
      input: "Variable_6/read"
      attr {
        key: "T"
        value {
          type: DT_FLOAT
        }
      }
      attr {
        key: "_output_shapes"
        value {
          list {
            shape {
              dim {
                size: -1
              }
              dim {
                size: 84
              }
            }
          }
        }
      }
      attr {
        key: "transpose_a"
        value {
          b: false
        }
      }
      attr {
        key: "transpose_b"
        value {
          b: false
        }
      }
    }
    node {
      name: "add_3"
      op: "Add"
      input: "MatMul_1"
      input: "Variable_7/read"
      attr {
        key: "T"
        value {
          type: DT_FLOAT
        }
      }
      attr {
        key: "_output_shapes"
        value {
          list {
            shape {
              dim {
                size: -1
              }
              dim {
                size: 84
              }
            }
          }
        }
      }
    }
    node {
      name: "Relu_3"
      op: "Relu"
      input: "add_3"
      attr {
        key: "T"
        value {
          type: DT_FLOAT
        }
      }
      attr {
        key: "_output_shapes"
        value {
          list {
            shape {
              dim {
                size: -1
              }
              dim {
                size: 84
              }
            }
          }
        }
      }
    }
    node {
      name: "truncated_normal_4/shape"
      op: "Const"
      attr {
        key: "_output_shapes"
        value {
          list {
            shape {
              dim {
                size: 2
              }
            }
          }
        }
      }
      attr {
        key: "dtype"
        value {
          type: DT_INT32
        }
      }
      attr {
        key: "value"
        value {
          tensor {
            dtype: DT_INT32
            tensor_shape {
              dim {
                size: 2
              }
            }
            tensor_content: "T\000\000\000+\000\000\000"
          }
        }
      }
    }
    node {
      name: "truncated_normal_4/mean"
      op: "Const"
      attr {
        key: "_output_shapes"
        value {
          list {
            shape {
            }
          }
        }
      }
      attr {
        key: "dtype"
        value {
          type: DT_FLOAT
        }
      }
      attr {
        key: "value"
        value {
          tensor {
            dtype: DT_FLOAT
            tensor_shape {
            }
            float_val: 0.0
          }
        }
      }
    }
    node {
      name: "truncated_normal_4/stddev"
      op: "Const"
      attr {
        key: "_output_shapes"
        value {
          list {
            shape {
            }
          }
        }
      }
      attr {
        key: "dtype"
        value {
          type: DT_FLOAT
        }
      }
      attr {
        key: "value"
        value {
          tensor {
            dtype: DT_FLOAT
            tensor_shape {
            }
            float_val: 0.10000000149011612
          }
        }
      }
    }
    node {
      name: "truncated_normal_4/TruncatedNormal"
      op: "TruncatedNormal"
      input: "truncated_normal_4/shape"
      attr {
        key: "T"
        value {
          type: DT_INT32
        }
      }
      attr {
        key: "_output_shapes"
        value {
          list {
            shape {
              dim {
                size: 84
              }
              dim {
                size: 43
              }
            }
          }
        }
      }
      attr {
        key: "dtype"
        value {
          type: DT_FLOAT
        }
      }
      attr {
        key: "seed"
        value {
          i: 0
        }
      }
      attr {
        key: "seed2"
        value {
          i: 0
        }
      }
    }
    node {
      name: "truncated_normal_4/mul"
      op: "Mul"
      input: "truncated_normal_4/TruncatedNormal"
      input: "truncated_normal_4/stddev"
      attr {
        key: "T"
        value {
          type: DT_FLOAT
        }
      }
      attr {
        key: "_output_shapes"
        value {
          list {
            shape {
              dim {
                size: 84
              }
              dim {
                size: 43
              }
            }
          }
        }
      }
    }
    node {
      name: "truncated_normal_4"
      op: "Add"
      input: "truncated_normal_4/mul"
      input: "truncated_normal_4/mean"
      attr {
        key: "T"
        value {
          type: DT_FLOAT
        }
      }
      attr {
        key: "_output_shapes"
        value {
          list {
            shape {
              dim {
                size: 84
              }
              dim {
                size: 43
              }
            }
          }
        }
      }
    }
    node {
      name: "Variable_8"
      op: "VariableV2"
      attr {
        key: "_output_shapes"
        value {
          list {
            shape {
              dim {
                size: 84
              }
              dim {
                size: 43
              }
            }
          }
        }
      }
      attr {
        key: "container"
        value {
          s: ""
        }
      }
      attr {
        key: "dtype"
        value {
          type: DT_FLOAT
        }
      }
      attr {
        key: "shape"
        value {
          shape {
            dim {
              size: 84
            }
            dim {
              size: 43
            }
          }
        }
      }
      attr {
        key: "shared_name"
        value {
          s: ""
        }
      }
    }
    node {
      name: "Variable_8/Assign"
      op: "Assign"
      input: "Variable_8"
      input: "truncated_normal_4"
      attr {
        key: "T"
        value {
          type: DT_FLOAT
        }
      }
      attr {
        key: "_class"
        value {
          list {
            s: "loc:@Variable_8"
          }
        }
      }
      attr {
        key: "_output_shapes"
        value {
          list {
            shape {
              dim {
                size: 84
              }
              dim {
                size: 43
              }
            }
          }
        }
      }
      attr {
        key: "use_locking"
        value {
          b: true
        }
      }
      attr {
        key: "validate_shape"
        value {
          b: true
        }
      }
    }
    node {
      name: "Variable_8/read"
      op: "Identity"
      input: "Variable_8"
      attr {
        key: "T"
        value {
          type: DT_FLOAT
        }
      }
      attr {
        key: "_class"
        value {
          list {
            s: "loc:@Variable_8"
          }
        }
      }
      attr {
        key: "_output_shapes"
        value {
          list {
            shape {
              dim {
                size: 84
              }
              dim {
                size: 43
              }
            }
          }
        }
      }
    }
    node {
      name: "zeros_4"
      op: "Const"
      attr {
        key: "_output_shapes"
        value {
          list {
            shape {
              dim {
                size: 43
              }
            }
          }
        }
      }
      attr {
        key: "dtype"
        value {
          type: DT_FLOAT
        }
      }
      attr {
        key: "value"
        value {
          tensor {
            dtype: DT_FLOAT
            tensor_shape {
              dim {
                size: 43
              }
            }
            float_val: 0.0
          }
        }
      }
    }
    node {
      name: "Variable_9"
      op: "VariableV2"
      attr {
        key: "_output_shapes"
        value {
          list {
            shape {
              dim {
                size: 43
              }
            }
          }
        }
      }
      attr {
        key: "container"
        value {
          s: ""
        }
      }
      attr {
        key: "dtype"
        value {
          type: DT_FLOAT
        }
      }
      attr {
        key: "shape"
        value {
          shape {
            dim {
              size: 43
            }
          }
        }
      }
      attr {
        key: "shared_name"
        value {
          s: ""
        }
      }
    }
    node {
      name: "Variable_9/Assign"
      op: "Assign"
      input: "Variable_9"
      input: "zeros_4"
      attr {
        key: "T"
        value {
          type: DT_FLOAT
        }
      }
      attr {
        key: "_class"
        value {
          list {
            s: "loc:@Variable_9"
          }
        }
      }
      attr {
        key: "_output_shapes"
        value {
          list {
            shape {
              dim {
                size: 43
              }
            }
          }
        }
      }
      attr {
        key: "use_locking"
        value {
          b: true
        }
      }
      attr {
        key: "validate_shape"
        value {
          b: true
        }
      }
    }
    node {
      name: "Variable_9/read"
      op: "Identity"
      input: "Variable_9"
      attr {
        key: "T"
        value {
          type: DT_FLOAT
        }
      }
      attr {
        key: "_class"
        value {
          list {
            s: "loc:@Variable_9"
          }
        }
      }
      attr {
        key: "_output_shapes"
        value {
          list {
            shape {
              dim {
                size: 43
              }
            }
          }
        }
      }
    }
    node {
      name: "MatMul_2"
      op: "MatMul"
      input: "Relu_3"
      input: "Variable_8/read"
      attr {
        key: "T"
        value {
          type: DT_FLOAT
        }
      }
      attr {
        key: "_output_shapes"
        value {
          list {
            shape {
              dim {
                size: -1
              }
              dim {
                size: 43
              }
            }
          }
        }
      }
      attr {
        key: "transpose_a"
        value {
          b: false
        }
      }
      attr {
        key: "transpose_b"
        value {
          b: false
        }
      }
    }
    node {
      name: "add_4"
      op: "Add"
      input: "MatMul_2"
      input: "Variable_9/read"
      attr {
        key: "T"
        value {
          type: DT_FLOAT
        }
      }
      attr {
        key: "_output_shapes"
        value {
          list {
            shape {
              dim {
                size: -1
              }
              dim {
                size: 43
              }
            }
          }
        }
      }
    }
    node {
      name: "output_tensor"
      op: "Identity"
      input: "add_4"
      attr {
        key: "T"
        value {
          type: DT_FLOAT
        }
      }
      attr {
        key: "_output_shapes"
        value {
          list {
            shape {
              dim {
                size: -1
              }
              dim {
                size: 43
              }
            }
          }
        }
      }
    }
    node {
      name: "L2Loss"
      op: "L2Loss"
      input: "Variable/read"
      attr {
        key: "T"
        value {
          type: DT_FLOAT
        }
      }
      attr {
        key: "_output_shapes"
        value {
          list {
            shape {
            }
          }
        }
      }
    }
    node {
      name: "L2Loss_1"
      op: "L2Loss"
      input: "Variable_1/read"
      attr {
        key: "T"
        value {
          type: DT_FLOAT
        }
      }
      attr {
        key: "_output_shapes"
        value {
          list {
            shape {
            }
          }
        }
      }
    }
    node {
      name: "L2Loss_2"
      op: "L2Loss"
      input: "Variable_2/read"
      attr {
        key: "T"
        value {
          type: DT_FLOAT
        }
      }
      attr {
        key: "_output_shapes"
        value {
          list {
            shape {
            }
          }
        }
      }
    }
    node {
      name: "L2Loss_3"
      op: "L2Loss"
      input: "Variable_3/read"
      attr {
        key: "T"
        value {
          type: DT_FLOAT
        }
      }
      attr {
        key: "_output_shapes"
        value {
          list {
            shape {
            }
          }
        }
      }
    }
    node {
      name: "L2Loss_4"
      op: "L2Loss"
      input: "Variable_4/read"
      attr {
        key: "T"
        value {
          type: DT_FLOAT
        }
      }
      attr {
        key: "_output_shapes"
        value {
          list {
            shape {
            }
          }
        }
      }
    }
    node {
      name: "L2Loss_5"
      op: "L2Loss"
      input: "Variable_5/read"
      attr {
        key: "T"
        value {
          type: DT_FLOAT
        }
      }
      attr {
        key: "_output_shapes"
        value {
          list {
            shape {
            }
          }
        }
      }
    }
    node {
      name: "L2Loss_6"
      op: "L2Loss"
      input: "Variable_6/read"
      attr {
        key: "T"
        value {
          type: DT_FLOAT
        }
      }
      attr {
        key: "_output_shapes"
        value {
          list {
            shape {
            }
          }
        }
      }
    }
    node {
      name: "L2Loss_7"
      op: "L2Loss"
      input: "Variable_7/read"
      attr {
        key: "T"
        value {
          type: DT_FLOAT
        }
      }
      attr {
        key: "_output_shapes"
        value {
          list {
            shape {
            }
          }
        }
      }
    }
    node {
      name: "L2Loss_8"
      op: "L2Loss"
      input: "Variable_8/read"
      attr {
        key: "T"
        value {
          type: DT_FLOAT
        }
      }
      attr {
        key: "_output_shapes"
        value {
          list {
            shape {
            }
          }
        }
      }
    }
    node {
      name: "L2Loss_9"
      op: "L2Loss"
      input: "Variable_9/read"
      attr {
        key: "T"
        value {
          type: DT_FLOAT
        }
      }
      attr {
        key: "_output_shapes"
        value {
          list {
            shape {
            }
          }
        }
      }
    }
    node {
      name: "AddN"
      op: "AddN"
      input: "L2Loss"
      input: "L2Loss_1"
      input: "L2Loss_2"
      input: "L2Loss_3"
      input: "L2Loss_4"
      input: "L2Loss_5"
      input: "L2Loss_6"
      input: "L2Loss_7"
      input: "L2Loss_8"
      input: "L2Loss_9"
      attr {
        key: "N"
        value {
          i: 10
        }
      }
      attr {
        key: "T"
        value {
          type: DT_FLOAT
        }
      }
      attr {
        key: "_output_shapes"
        value {
          list {
            shape {
            }
          }
        }
      }
    }
    node {
      name: "mul/y"
      op: "Const"
      attr {
        key: "_output_shapes"
        value {
          list {
            shape {
            }
          }
        }
      }
      attr {
        key: "dtype"
        value {
          type: DT_FLOAT
        }
      }
      attr {
        key: "value"
        value {
          tensor {
            dtype: DT_FLOAT
            tensor_shape {
            }
            float_val: 9.999999747378752e-05
          }
        }
      }
    }
    node {
      name: "mul"
      op: "Mul"
      input: "AddN"
      input: "mul/y"
      attr {
        key: "T"
        value {
          type: DT_FLOAT
        }
      }
      attr {
        key: "_output_shapes"
        value {
          list {
            shape {
            }
          }
        }
      }
    }
    node {
      name: "Rank"
      op: "Const"
      attr {
        key: "_output_shapes"
        value {
          list {
            shape {
            }
          }
        }
      }
      attr {
        key: "dtype"
        value {
          type: DT_INT32
        }
      }
      attr {
        key: "value"
        value {
          tensor {
            dtype: DT_INT32
            tensor_shape {
            }
            int_val: 2
          }
        }
      }
    }
    node {
      name: "Shape"
      op: "Shape"
      input: "output_tensor"
      attr {
        key: "T"
        value {
          type: DT_FLOAT
        }
      }
      attr {
        key: "_output_shapes"
        value {
          list {
            shape {
              dim {
                size: 2
              }
            }
          }
        }
      }
      attr {
        key: "out_type"
        value {
          type: DT_INT32
        }
      }
    }
    node {
      name: "Rank_1"
      op: "Const"
      attr {
        key: "_output_shapes"
        value {
          list {
            shape {
            }
          }
        }
      }
      attr {
        key: "dtype"
        value {
          type: DT_INT32
        }
      }
      attr {
        key: "value"
        value {
          tensor {
            dtype: DT_INT32
            tensor_shape {
            }
            int_val: 2
          }
        }
      }
    }
    node {
      name: "Shape_1"
      op: "Shape"
      input: "output_tensor"
      attr {
        key: "T"
        value {
          type: DT_FLOAT
        }
      }
      attr {
        key: "_output_shapes"
        value {
          list {
            shape {
              dim {
                size: 2
              }
            }
          }
        }
      }
      attr {
        key: "out_type"
        value {
          type: DT_INT32
        }
      }
    }
    node {
      name: "Sub/y"
      op: "Const"
      attr {
        key: "_output_shapes"
        value {
          list {
            shape {
            }
          }
        }
      }
      attr {
        key: "dtype"
        value {
          type: DT_INT32
        }
      }
      attr {
        key: "value"
        value {
          tensor {
            dtype: DT_INT32
            tensor_shape {
            }
            int_val: 1
          }
        }
      }
    }
    node {
      name: "Sub"
      op: "Sub"
      input: "Rank_1"
      input: "Sub/y"
      attr {
        key: "T"
        value {
          type: DT_INT32
        }
      }
      attr {
        key: "_output_shapes"
        value {
          list {
            shape {
            }
          }
        }
      }
    }
    node {
      name: "Slice/begin"
      op: "Pack"
      input: "Sub"
      attr {
        key: "N"
        value {
          i: 1
        }
      }
      attr {
        key: "T"
        value {
          type: DT_INT32
        }
      }
      attr {
        key: "_output_shapes"
        value {
          list {
            shape {
              dim {
                size: 1
              }
            }
          }
        }
      }
      attr {
        key: "axis"
        value {
          i: 0
        }
      }
    }
    node {
      name: "Slice/size"
      op: "Const"
      attr {
        key: "_output_shapes"
        value {
          list {
            shape {
              dim {
                size: 1
              }
            }
          }
        }
      }
      attr {
        key: "dtype"
        value {
          type: DT_INT32
        }
      }
      attr {
        key: "value"
        value {
          tensor {
            dtype: DT_INT32
            tensor_shape {
              dim {
                size: 1
              }
            }
            int_val: 1
          }
        }
      }
    }
    node {
      name: "Slice"
      op: "Slice"
      input: "Shape_1"
      input: "Slice/begin"
      input: "Slice/size"
      attr {
        key: "Index"
        value {
          type: DT_INT32
        }
      }
      attr {
        key: "T"
        value {
          type: DT_INT32
        }
      }
      attr {
        key: "_output_shapes"
        value {
          list {
            shape {
              dim {
                size: 1
              }
            }
          }
        }
      }
    }
    node {
      name: "concat/values_0"
      op: "Const"
      attr {
        key: "_output_shapes"
        value {
          list {
            shape {
              dim {
                size: 1
              }
            }
          }
        }
      }
      attr {
        key: "dtype"
        value {
          type: DT_INT32
        }
      }
      attr {
        key: "value"
        value {
          tensor {
            dtype: DT_INT32
            tensor_shape {
              dim {
                size: 1
              }
            }
            int_val: -1
          }
        }
      }
    }
    node {
      name: "concat/axis"
      op: "Const"
      attr {
        key: "_output_shapes"
        value {
          list {
            shape {
            }
          }
        }
      }
      attr {
        key: "dtype"
        value {
          type: DT_INT32
        }
      }
      attr {
        key: "value"
        value {
          tensor {
            dtype: DT_INT32
            tensor_shape {
            }
            int_val: 0
          }
        }
      }
    }
    node {
      name: "concat"
      op: "ConcatV2"
      input: "concat/values_0"
      input: "Slice"
      input: "concat/axis"
      attr {
        key: "N"
        value {
          i: 2
        }
      }
      attr {
        key: "T"
        value {
          type: DT_INT32
        }
      }
      attr {
        key: "Tidx"
        value {
          type: DT_INT32
        }
      }
      attr {
        key: "_output_shapes"
        value {
          list {
            shape {
              dim {
                size: 2
              }
            }
          }
        }
      }
    }
    node {
      name: "Reshape"
      op: "Reshape"
      input: "output_tensor"
      input: "concat"
      attr {
        key: "T"
        value {
          type: DT_FLOAT
        }
      }
      attr {
        key: "Tshape"
        value {
          type: DT_INT32
        }
      }
      attr {
        key: "_output_shapes"
        value {
          list {
            shape {
              dim {
                size: -1
              }
              dim {
                size: -1
              }
            }
          }
        }
      }
    }
    node {
      name: "Rank_2"
      op: "Rank"
      input: "one_hot"
      attr {
        key: "T"
        value {
          type: DT_FLOAT
        }
      }
      attr {
        key: "_output_shapes"
        value {
          list {
            shape {
            }
          }
        }
      }
    }
    node {
      name: "Shape_2"
      op: "Shape"
      input: "one_hot"
      attr {
        key: "T"
        value {
          type: DT_FLOAT
        }
      }
      attr {
        key: "_output_shapes"
        value {
          list {
            shape {
              dim {
                size: -1
              }
            }
          }
        }
      }
      attr {
        key: "out_type"
        value {
          type: DT_INT32
        }
      }
    }
    node {
      name: "Sub_1/y"
      op: "Const"
      attr {
        key: "_output_shapes"
        value {
          list {
            shape {
            }
          }
        }
      }
      attr {
        key: "dtype"
        value {
          type: DT_INT32
        }
      }
      attr {
        key: "value"
        value {
          tensor {
            dtype: DT_INT32
            tensor_shape {
            }
            int_val: 1
          }
        }
      }
    }
    node {
      name: "Sub_1"
      op: "Sub"
      input: "Rank_2"
      input: "Sub_1/y"
      attr {
        key: "T"
        value {
          type: DT_INT32
        }
      }
      attr {
        key: "_output_shapes"
        value {
          list {
            shape {
            }
          }
        }
      }
    }
    node {
      name: "Slice_1/begin"
      op: "Pack"
      input: "Sub_1"
      attr {
        key: "N"
        value {
          i: 1
        }
      }
      attr {
        key: "T"
        value {
          type: DT_INT32
        }
      }
      attr {
        key: "_output_shapes"
        value {
          list {
            shape {
              dim {
                size: 1
              }
            }
          }
        }
      }
      attr {
        key: "axis"
        value {
          i: 0
        }
      }
    }
    node {
      name: "Slice_1/size"
      op: "Const"
      attr {
        key: "_output_shapes"
        value {
          list {
            shape {
              dim {
                size: 1
              }
            }
          }
        }
      }
      attr {
        key: "dtype"
        value {
          type: DT_INT32
        }
      }
      attr {
        key: "value"
        value {
          tensor {
            dtype: DT_INT32
            tensor_shape {
              dim {
                size: 1
              }
            }
            int_val: 1
          }
        }
      }
    }
    node {
      name: "Slice_1"
      op: "Slice"
      input: "Shape_2"
      input: "Slice_1/begin"
      input: "Slice_1/size"
      attr {
        key: "Index"
        value {
          type: DT_INT32
        }
      }
      attr {
        key: "T"
        value {
          type: DT_INT32
        }
      }
      attr {
        key: "_output_shapes"
        value {
          list {
            shape {
              dim {
                size: 1
              }
            }
          }
        }
      }
    }
    node {
      name: "concat_1/values_0"
      op: "Const"
      attr {
        key: "_output_shapes"
        value {
          list {
            shape {
              dim {
                size: 1
              }
            }
          }
        }
      }
      attr {
        key: "dtype"
        value {
          type: DT_INT32
        }
      }
      attr {
        key: "value"
        value {
          tensor {
            dtype: DT_INT32
            tensor_shape {
              dim {
                size: 1
              }
            }
            int_val: -1
          }
        }
      }
    }
    node {
      name: "concat_1/axis"
      op: "Const"
      attr {
        key: "_output_shapes"
        value {
          list {
            shape {
            }
          }
        }
      }
      attr {
        key: "dtype"
        value {
          type: DT_INT32
        }
      }
      attr {
        key: "value"
        value {
          tensor {
            dtype: DT_INT32
            tensor_shape {
            }
            int_val: 0
          }
        }
      }
    }
    node {
      name: "concat_1"
      op: "ConcatV2"
      input: "concat_1/values_0"
      input: "Slice_1"
      input: "concat_1/axis"
      attr {
        key: "N"
        value {
          i: 2
        }
      }
      attr {
        key: "T"
        value {
          type: DT_INT32
        }
      }
      attr {
        key: "Tidx"
        value {
          type: DT_INT32
        }
      }
      attr {
        key: "_output_shapes"
        value {
          list {
            shape {
              dim {
                size: 2
              }
            }
          }
        }
      }
    }
    node {
      name: "Reshape_1"
      op: "Reshape"
      input: "one_hot"
      input: "concat_1"
      attr {
        key: "T"
        value {
          type: DT_FLOAT
        }
      }
      attr {
        key: "Tshape"
        value {
          type: DT_INT32
        }
      }
      attr {
        key: "_output_shapes"
        value {
          list {
            shape {
              dim {
                size: -1
              }
              dim {
                size: -1
              }
            }
          }
        }
      }
    }
    node {
      name: "SoftmaxCrossEntropyWithLogits"
      op: "SoftmaxCrossEntropyWithLogits"
      input: "Reshape"
      input: "Reshape_1"
      attr {
        key: "T"
        value {
          type: DT_FLOAT
        }
      }
      attr {
        key: "_output_shapes"
        value {
          list {
            shape {
              dim {
                size: -1
              }
            }
            shape {
              dim {
                size: -1
              }
              dim {
                size: -1
              }
            }
          }
        }
      }
    }
    node {
      name: "Sub_2/y"
      op: "Const"
      attr {
        key: "_output_shapes"
        value {
          list {
            shape {
            }
          }
        }
      }
      attr {
        key: "dtype"
        value {
          type: DT_INT32
        }
      }
      attr {
        key: "value"
        value {
          tensor {
            dtype: DT_INT32
            tensor_shape {
            }
            int_val: 1
          }
        }
      }
    }
    node {
      name: "Sub_2"
      op: "Sub"
      input: "Rank"
      input: "Sub_2/y"
      attr {
        key: "T"
        value {
          type: DT_INT32
        }
      }
      attr {
        key: "_output_shapes"
        value {
          list {
            shape {
            }
          }
        }
      }
    }
    node {
      name: "Slice_2/begin"
      op: "Const"
      attr {
        key: "_output_shapes"
        value {
          list {
            shape {
              dim {
                size: 1
              }
            }
          }
        }
      }
      attr {
        key: "dtype"
        value {
          type: DT_INT32
        }
      }
      attr {
        key: "value"
        value {
          tensor {
            dtype: DT_INT32
            tensor_shape {
              dim {
                size: 1
              }
            }
            int_val: 0
          }
        }
      }
    }
    node {
      name: "Slice_2/size"
      op: "Pack"
      input: "Sub_2"
      attr {
        key: "N"
        value {
          i: 1
        }
      }
      attr {
        key: "T"
        value {
          type: DT_INT32
        }
      }
      attr {
        key: "_output_shapes"
        value {
          list {
            shape {
              dim {
                size: 1
              }
            }
          }
        }
      }
      attr {
        key: "axis"
        value {
          i: 0
        }
      }
    }
    node {
      name: "Slice_2"
      op: "Slice"
      input: "Shape"
      input: "Slice_2/begin"
      input: "Slice_2/size"
      attr {
        key: "Index"
        value {
          type: DT_INT32
        }
      }
      attr {
        key: "T"
        value {
          type: DT_INT32
        }
      }
      attr {
        key: "_output_shapes"
        value {
          list {
            shape {
              dim {
                size: -1
              }
            }
          }
        }
      }
    }
    node {
      name: "Reshape_2"
      op: "Reshape"
      input: "SoftmaxCrossEntropyWithLogits"
      input: "Slice_2"
      attr {
        key: "T"
        value {
          type: DT_FLOAT
        }
      }
      attr {
        key: "Tshape"
        value {
          type: DT_INT32
        }
      }
      attr {
        key: "_output_shapes"
        value {
          list {
            shape {
              dim {
                size: -1
              }
            }
          }
        }
      }
    }
    node {
      name: "Const"
      op: "Const"
      attr {
        key: "_output_shapes"
        value {
          list {
            shape {
              dim {
                size: 1
              }
            }
          }
        }
      }
      attr {
        key: "dtype"
        value {
          type: DT_INT32
        }
      }
      attr {
        key: "value"
        value {
          tensor {
            dtype: DT_INT32
            tensor_shape {
              dim {
                size: 1
              }
            }
            int_val: 0
          }
        }
      }
    }
    node {
      name: "Mean"
      op: "Mean"
      input: "Reshape_2"
      input: "Const"
      attr {
        key: "T"
        value {
          type: DT_FLOAT
        }
      }
      attr {
        key: "Tidx"
        value {
          type: DT_INT32
        }
      }
      attr {
        key: "_output_shapes"
        value {
          list {
            shape {
            }
          }
        }
      }
      attr {
        key: "keep_dims"
        value {
          b: false
        }
      }
    }
    node {
      name: "add_5"
      op: "Add"
      input: "Mean"
      input: "mul"
      attr {
        key: "T"
        value {
          type: DT_FLOAT
        }
      }
      attr {
        key: "_output_shapes"
        value {
          list {
            shape {
            }
          }
        }
      }
    }
    node {
      name: "gradients/Shape"
      op: "Const"
      attr {
        key: "_output_shapes"
        value {
          list {
            shape {
              dim {
              }
            }
          }
        }
      }
      attr {
        key: "dtype"
        value {
          type: DT_INT32
        }
      }
      attr {
        key: "value"
        value {
          tensor {
            dtype: DT_INT32
            tensor_shape {
              dim {
              }
            }
          }
        }
      }
    }
    node {
      name: "gradients/Const"
      op: "Const"
      attr {
        key: "_output_shapes"
        value {
          list {
            shape {
            }
          }
        }
      }
      attr {
        key: "dtype"
        value {
          type: DT_FLOAT
        }
      }
      attr {
        key: "value"
        value {
          tensor {
            dtype: DT_FLOAT
            tensor_shape {
            }
            float_val: 1.0
          }
        }
      }
    }
    node {
      name: "gradients/Fill"
      op: "Fill"
      input: "gradients/Shape"
      input: "gradients/Const"
      attr {
        key: "T"
        value {
          type: DT_FLOAT
        }
      }
      attr {
        key: "_output_shapes"
        value {
          list {
            shape {
            }
          }
        }
      }
    }
    node {
      name: "gradients/add_5_grad/Shape"
      op: "Const"
      attr {
        key: "_output_shapes"
        value {
          list {
            shape {
              dim {
              }
            }
          }
        }
      }
      attr {
        key: "dtype"
        value {
          type: DT_INT32
        }
      }
      attr {
        key: "value"
        value {
          tensor {
            dtype: DT_INT32
            tensor_shape {
              dim {
              }
            }
          }
        }
      }
    }
    node {
      name: "gradients/add_5_grad/Shape_1"
      op: "Const"
      attr {
        key: "_output_shapes"
        value {
          list {
            shape {
              dim {
              }
            }
          }
        }
      }
      attr {
        key: "dtype"
        value {
          type: DT_INT32
        }
      }
      attr {
        key: "value"
        value {
          tensor {
            dtype: DT_INT32
            tensor_shape {
              dim {
              }
            }
          }
        }
      }
    }
    node {
      name: "gradients/add_5_grad/BroadcastGradientArgs"
      op: "BroadcastGradientArgs"
      input: "gradients/add_5_grad/Shape"
      input: "gradients/add_5_grad/Shape_1"
      attr {
        key: "T"
        value {
          type: DT_INT32
        }
      }
      attr {
        key: "_output_shapes"
        value {
          list {
            shape {
              dim {
                size: -1
              }
            }
            shape {
              dim {
                size: -1
              }
            }
          }
        }
      }
    }
    node {
      name: "gradients/add_5_grad/Sum"
      op: "Sum"
      input: "gradients/Fill"
      input: "gradients/add_5_grad/BroadcastGradientArgs"
      attr {
        key: "T"
        value {
          type: DT_FLOAT
        }
      }
      attr {
        key: "Tidx"
        value {
          type: DT_INT32
        }
      }
      attr {
        key: "_output_shapes"
        value {
          list {
            shape {
              unknown_rank: true
            }
          }
        }
      }
      attr {
        key: "keep_dims"
        value {
          b: false
        }
      }
    }
    node {
      name: "gradients/add_5_grad/Reshape"
      op: "Reshape"
      input: "gradients/add_5_grad/Sum"
      input: "gradients/add_5_grad/Shape"
      attr {
        key: "T"
        value {
          type: DT_FLOAT
        }
      }
      attr {
        key: "Tshape"
        value {
          type: DT_INT32
        }
      }
      attr {
        key: "_output_shapes"
        value {
          list {
            shape {
            }
          }
        }
      }
    }
    node {
      name: "gradients/add_5_grad/Sum_1"
      op: "Sum"
      input: "gradients/Fill"
      input: "gradients/add_5_grad/BroadcastGradientArgs:1"
      attr {
        key: "T"
        value {
          type: DT_FLOAT
        }
      }
      attr {
        key: "Tidx"
        value {
          type: DT_INT32
        }
      }
      attr {
        key: "_output_shapes"
        value {
          list {
            shape {
              unknown_rank: true
            }
          }
        }
      }
      attr {
        key: "keep_dims"
        value {
          b: false
        }
      }
    }
    node {
      name: "gradients/add_5_grad/Reshape_1"
      op: "Reshape"
      input: "gradients/add_5_grad/Sum_1"
      input: "gradients/add_5_grad/Shape_1"
      attr {
        key: "T"
        value {
          type: DT_FLOAT
        }
      }
      attr {
        key: "Tshape"
        value {
          type: DT_INT32
        }
      }
      attr {
        key: "_output_shapes"
        value {
          list {
            shape {
            }
          }
        }
      }
    }
    node {
      name: "gradients/add_5_grad/tuple/group_deps"
      op: "NoOp"
      input: "^gradients/add_5_grad/Reshape"
      input: "^gradients/add_5_grad/Reshape_1"
    }
    node {
      name: "gradients/add_5_grad/tuple/control_dependency"
      op: "Identity"
      input: "gradients/add_5_grad/Reshape"
      input: "^gradients/add_5_grad/tuple/group_deps"
      attr {
        key: "T"
        value {
          type: DT_FLOAT
        }
      }
      attr {
        key: "_class"
        value {
          list {
            s: "loc:@gradients/add_5_grad/Reshape"
          }
        }
      }
      attr {
        key: "_output_shapes"
        value {
          list {
            shape {
            }
          }
        }
      }
    }
    node {
      name: "gradients/add_5_grad/tuple/control_dependency_1"
      op: "Identity"
      input: "gradients/add_5_grad/Reshape_1"
      input: "^gradients/add_5_grad/tuple/group_deps"
      attr {
        key: "T"
        value {
          type: DT_FLOAT
        }
      }
      attr {
        key: "_class"
        value {
          list {
            s: "loc:@gradients/add_5_grad/Reshape_1"
          }
        }
      }
      attr {
        key: "_output_shapes"
        value {
          list {
            shape {
            }
          }
        }
      }
    }
    node {
      name: "gradients/Mean_grad/Reshape/shape"
      op: "Const"
      attr {
        key: "_output_shapes"
        value {
          list {
            shape {
              dim {
                size: 1
              }
            }
          }
        }
      }
      attr {
        key: "dtype"
        value {
          type: DT_INT32
        }
      }
      attr {
        key: "value"
        value {
          tensor {
            dtype: DT_INT32
            tensor_shape {
              dim {
                size: 1
              }
            }
            int_val: 1
          }
        }
      }
    }
    node {
      name: "gradients/Mean_grad/Reshape"
      op: "Reshape"
      input: "gradients/add_5_grad/tuple/control_dependency"
      input: "gradients/Mean_grad/Reshape/shape"
      attr {
        key: "T"
        value {
          type: DT_FLOAT
        }
      }
      attr {
        key: "Tshape"
        value {
          type: DT_INT32
        }
      }
      attr {
        key: "_output_shapes"
        value {
          list {
            shape {
              dim {
                size: 1
              }
            }
          }
        }
      }
    }
    node {
      name: "gradients/Mean_grad/Shape"
      op: "Shape"
      input: "Reshape_2"
      attr {
        key: "T"
        value {
          type: DT_FLOAT
        }
      }
      attr {
        key: "_output_shapes"
        value {
          list {
            shape {
              dim {
                size: 1
              }
            }
          }
        }
      }
      attr {
        key: "out_type"
        value {
          type: DT_INT32
        }
      }
    }
    node {
      name: "gradients/Mean_grad/Tile"
      op: "Tile"
      input: "gradients/Mean_grad/Reshape"
      input: "gradients/Mean_grad/Shape"
      attr {
        key: "T"
        value {
          type: DT_FLOAT
        }
      }
      attr {
        key: "Tmultiples"
        value {
          type: DT_INT32
        }
      }
      attr {
        key: "_output_shapes"
        value {
          list {
            shape {
              dim {
                size: -1
              }
            }
          }
        }
      }
    }
    node {
      name: "gradients/Mean_grad/Shape_1"
      op: "Shape"
      input: "Reshape_2"
      attr {
        key: "T"
        value {
          type: DT_FLOAT
        }
      }
      attr {
        key: "_output_shapes"
        value {
          list {
            shape {
              dim {
                size: 1
              }
            }
          }
        }
      }
      attr {
        key: "out_type"
        value {
          type: DT_INT32
        }
      }
    }
    node {
      name: "gradients/Mean_grad/Shape_2"
      op: "Const"
      attr {
        key: "_output_shapes"
        value {
          list {
            shape {
              dim {
              }
            }
          }
        }
      }
      attr {
        key: "dtype"
        value {
          type: DT_INT32
        }
      }
      attr {
        key: "value"
        value {
          tensor {
            dtype: DT_INT32
            tensor_shape {
              dim {
              }
            }
          }
        }
      }
    }
    node {
      name: "gradients/Mean_grad/Const"
      op: "Const"
      attr {
        key: "_class"
        value {
          list {
            s: "loc:@gradients/Mean_grad/Shape_1"
          }
        }
      }
      attr {
        key: "_output_shapes"
        value {
          list {
            shape {
              dim {
                size: 1
              }
            }
          }
        }
      }
      attr {
        key: "dtype"
        value {
          type: DT_INT32
        }
      }
      attr {
        key: "value"
        value {
          tensor {
            dtype: DT_INT32
            tensor_shape {
              dim {
                size: 1
              }
            }
            int_val: 0
          }
        }
      }
    }
    node {
      name: "gradients/Mean_grad/Prod"
      op: "Prod"
      input: "gradients/Mean_grad/Shape_1"
      input: "gradients/Mean_grad/Const"
      attr {
        key: "T"
        value {
          type: DT_INT32
        }
      }
      attr {
        key: "Tidx"
        value {
          type: DT_INT32
        }
      }
      attr {
        key: "_class"
        value {
          list {
            s: "loc:@gradients/Mean_grad/Shape_1"
          }
        }
      }
      attr {
        key: "_output_shapes"
        value {
          list {
            shape {
            }
          }
        }
      }
      attr {
        key: "keep_dims"
        value {
          b: false
        }
      }
    }
    node {
      name: "gradients/Mean_grad/Const_1"
      op: "Const"
      attr {
        key: "_class"
        value {
          list {
            s: "loc:@gradients/Mean_grad/Shape_1"
          }
        }
      }
      attr {
        key: "_output_shapes"
        value {
          list {
            shape {
              dim {
                size: 1
              }
            }
          }
        }
      }
      attr {
        key: "dtype"
        value {
          type: DT_INT32
        }
      }
      attr {
        key: "value"
        value {
          tensor {
            dtype: DT_INT32
            tensor_shape {
              dim {
                size: 1
              }
            }
            int_val: 0
          }
        }
      }
    }
    node {
      name: "gradients/Mean_grad/Prod_1"
      op: "Prod"
      input: "gradients/Mean_grad/Shape_2"
      input: "gradients/Mean_grad/Const_1"
      attr {
        key: "T"
        value {
          type: DT_INT32
        }
      }
      attr {
        key: "Tidx"
        value {
          type: DT_INT32
        }
      }
      attr {
        key: "_class"
        value {
          list {
            s: "loc:@gradients/Mean_grad/Shape_1"
          }
        }
      }
      attr {
        key: "_output_shapes"
        value {
          list {
            shape {
            }
          }
        }
      }
      attr {
        key: "keep_dims"
        value {
          b: false
        }
      }
    }
    node {
      name: "gradients/Mean_grad/Maximum/y"
      op: "Const"
      attr {
        key: "_class"
        value {
          list {
            s: "loc:@gradients/Mean_grad/Shape_1"
          }
        }
      }
      attr {
        key: "_output_shapes"
        value {
          list {
            shape {
            }
          }
        }
      }
      attr {
        key: "dtype"
        value {
          type: DT_INT32
        }
      }
      attr {
        key: "value"
        value {
          tensor {
            dtype: DT_INT32
            tensor_shape {
            }
            int_val: 1
          }
        }
      }
    }
    node {
      name: "gradients/Mean_grad/Maximum"
      op: "Maximum"
      input: "gradients/Mean_grad/Prod_1"
      input: "gradients/Mean_grad/Maximum/y"
      attr {
        key: "T"
        value {
          type: DT_INT32
        }
      }
      attr {
        key: "_class"
        value {
          list {
            s: "loc:@gradients/Mean_grad/Shape_1"
          }
        }
      }
      attr {
        key: "_output_shapes"
        value {
          list {
            shape {
            }
          }
        }
      }
    }
    node {
      name: "gradients/Mean_grad/floordiv"
      op: "FloorDiv"
      input: "gradients/Mean_grad/Prod"
      input: "gradients/Mean_grad/Maximum"
      attr {
        key: "T"
        value {
          type: DT_INT32
        }
      }
      attr {
        key: "_class"
        value {
          list {
            s: "loc:@gradients/Mean_grad/Shape_1"
          }
        }
      }
      attr {
        key: "_output_shapes"
        value {
          list {
            shape {
            }
          }
        }
      }
    }
    node {
      name: "gradients/Mean_grad/Cast"
      op: "Cast"
      input: "gradients/Mean_grad/floordiv"
      attr {
        key: "DstT"
        value {
          type: DT_FLOAT
        }
      }
      attr {
        key: "SrcT"
        value {
          type: DT_INT32
        }
      }
      attr {
        key: "_output_shapes"
        value {
          list {
            shape {
            }
          }
        }
      }
    }
    node {
      name: "gradients/Mean_grad/truediv"
      op: "RealDiv"
      input: "gradients/Mean_grad/Tile"
      input: "gradients/Mean_grad/Cast"
      attr {
        key: "T"
        value {
          type: DT_FLOAT
        }
      }
      attr {
        key: "_output_shapes"
        value {
          list {
            shape {
              dim {
                size: -1
              }
            }
          }
        }
      }
    }
    node {
      name: "gradients/mul_grad/Shape"
      op: "Const"
      attr {
        key: "_output_shapes"
        value {
          list {
            shape {
              dim {
              }
            }
          }
        }
      }
      attr {
        key: "dtype"
        value {
          type: DT_INT32
        }
      }
      attr {
        key: "value"
        value {
          tensor {
            dtype: DT_INT32
            tensor_shape {
              dim {
              }
            }
          }
        }
      }
    }
    node {
      name: "gradients/mul_grad/Shape_1"
      op: "Const"
      attr {
        key: "_output_shapes"
        value {
          list {
            shape {
              dim {
              }
            }
          }
        }
      }
      attr {
        key: "dtype"
        value {
          type: DT_INT32
        }
      }
      attr {
        key: "value"
        value {
          tensor {
            dtype: DT_INT32
            tensor_shape {
              dim {
              }
            }
          }
        }
      }
    }
    node {
      name: "gradients/mul_grad/BroadcastGradientArgs"
      op: "BroadcastGradientArgs"
      input: "gradients/mul_grad/Shape"
      input: "gradients/mul_grad/Shape_1"
      attr {
        key: "T"
        value {
          type: DT_INT32
        }
      }
      attr {
        key: "_output_shapes"
        value {
          list {
            shape {
              dim {
                size: -1
              }
            }
            shape {
              dim {
                size: -1
              }
            }
          }
        }
      }
    }
    node {
      name: "gradients/mul_grad/mul"
      op: "Mul"
      input: "gradients/add_5_grad/tuple/control_dependency_1"
      input: "mul/y"
      attr {
        key: "T"
        value {
          type: DT_FLOAT
        }
      }
      attr {
        key: "_output_shapes"
        value {
          list {
            shape {
            }
          }
        }
      }
    }
    node {
      name: "gradients/mul_grad/Sum"
      op: "Sum"
      input: "gradients/mul_grad/mul"
      input: "gradients/mul_grad/BroadcastGradientArgs"
      attr {
        key: "T"
        value {
          type: DT_FLOAT
        }
      }
      attr {
        key: "Tidx"
        value {
          type: DT_INT32
        }
      }
      attr {
        key: "_output_shapes"
        value {
          list {
            shape {
              unknown_rank: true
            }
          }
        }
      }
      attr {
        key: "keep_dims"
        value {
          b: false
        }
      }
    }
    node {
      name: "gradients/mul_grad/Reshape"
      op: "Reshape"
      input: "gradients/mul_grad/Sum"
      input: "gradients/mul_grad/Shape"
      attr {
        key: "T"
        value {
          type: DT_FLOAT
        }
      }
      attr {
        key: "Tshape"
        value {
          type: DT_INT32
        }
      }
      attr {
        key: "_output_shapes"
        value {
          list {
            shape {
            }
          }
        }
      }
    }
    node {
      name: "gradients/mul_grad/mul_1"
      op: "Mul"
      input: "AddN"
      input: "gradients/add_5_grad/tuple/control_dependency_1"
      attr {
        key: "T"
        value {
          type: DT_FLOAT
        }
      }
      attr {
        key: "_output_shapes"
        value {
          list {
            shape {
            }
          }
        }
      }
    }
    node {
      name: "gradients/mul_grad/Sum_1"
      op: "Sum"
      input: "gradients/mul_grad/mul_1"
      input: "gradients/mul_grad/BroadcastGradientArgs:1"
      attr {
        key: "T"
        value {
          type: DT_FLOAT
        }
      }
      attr {
        key: "Tidx"
        value {
          type: DT_INT32
        }
      }
      attr {
        key: "_output_shapes"
        value {
          list {
            shape {
              unknown_rank: true
            }
          }
        }
      }
      attr {
        key: "keep_dims"
        value {
          b: false
        }
      }
    }
    node {
      name: "gradients/mul_grad/Reshape_1"
      op: "Reshape"
      input: "gradients/mul_grad/Sum_1"
      input: "gradients/mul_grad/Shape_1"
      attr {
        key: "T"
        value {
          type: DT_FLOAT
        }
      }
      attr {
        key: "Tshape"
        value {
          type: DT_INT32
        }
      }
      attr {
        key: "_output_shapes"
        value {
          list {
            shape {
            }
          }
        }
      }
    }
    node {
      name: "gradients/mul_grad/tuple/group_deps"
      op: "NoOp"
      input: "^gradients/mul_grad/Reshape"
      input: "^gradients/mul_grad/Reshape_1"
    }
    node {
      name: "gradients/mul_grad/tuple/control_dependency"
      op: "Identity"
      input: "gradients/mul_grad/Reshape"
      input: "^gradients/mul_grad/tuple/group_deps"
      attr {
        key: "T"
        value {
          type: DT_FLOAT
        }
      }
      attr {
        key: "_class"
        value {
          list {
            s: "loc:@gradients/mul_grad/Reshape"
          }
        }
      }
      attr {
        key: "_output_shapes"
        value {
          list {
            shape {
            }
          }
        }
      }
    }
    node {
      name: "gradients/mul_grad/tuple/control_dependency_1"
      op: "Identity"
      input: "gradients/mul_grad/Reshape_1"
      input: "^gradients/mul_grad/tuple/group_deps"
      attr {
        key: "T"
        value {
          type: DT_FLOAT
        }
      }
      attr {
        key: "_class"
        value {
          list {
            s: "loc:@gradients/mul_grad/Reshape_1"
          }
        }
      }
      attr {
        key: "_output_shapes"
        value {
          list {
            shape {
            }
          }
        }
      }
    }
    node {
      name: "gradients/Reshape_2_grad/Shape"
      op: "Shape"
      input: "SoftmaxCrossEntropyWithLogits"
      attr {
        key: "T"
        value {
          type: DT_FLOAT
        }
      }
      attr {
        key: "_output_shapes"
        value {
          list {
            shape {
              dim {
                size: 1
              }
            }
          }
        }
      }
      attr {
        key: "out_type"
        value {
          type: DT_INT32
        }
      }
    }
    node {
      name: "gradients/Reshape_2_grad/Reshape"
      op: "Reshape"
      input: "gradients/Mean_grad/truediv"
      input: "gradients/Reshape_2_grad/Shape"
      attr {
        key: "T"
        value {
          type: DT_FLOAT
        }
      }
      attr {
        key: "Tshape"
        value {
          type: DT_INT32
        }
      }
      attr {
        key: "_output_shapes"
        value {
          list {
            shape {
              dim {
                size: -1
              }
            }
          }
        }
      }
    }
    node {
      name: "gradients/AddN_grad/tuple/group_deps"
      op: "NoOp"
      input: "^gradients/mul_grad/tuple/control_dependency"
    }
    node {
      name: "gradients/AddN_grad/tuple/control_dependency"
      op: "Identity"
      input: "gradients/mul_grad/tuple/control_dependency"
      input: "^gradients/AddN_grad/tuple/group_deps"
      attr {
        key: "T"
        value {
          type: DT_FLOAT
        }
      }
      attr {
        key: "_class"
        value {
          list {
            s: "loc:@gradients/mul_grad/Reshape"
          }
        }
      }
      attr {
        key: "_output_shapes"
        value {
          list {
            shape {
            }
          }
        }
      }
    }
    node {
      name: "gradients/AddN_grad/tuple/control_dependency_1"
      op: "Identity"
      input: "gradients/mul_grad/tuple/control_dependency"
      input: "^gradients/AddN_grad/tuple/group_deps"
      attr {
        key: "T"
        value {
          type: DT_FLOAT
        }
      }
      attr {
        key: "_class"
        value {
          list {
            s: "loc:@gradients/mul_grad/Reshape"
          }
        }
      }
      attr {
        key: "_output_shapes"
        value {
          list {
            shape {
            }
          }
        }
      }
    }
    node {
      name: "gradients/AddN_grad/tuple/control_dependency_2"
      op: "Identity"
      input: "gradients/mul_grad/tuple/control_dependency"
      input: "^gradients/AddN_grad/tuple/group_deps"
      attr {
        key: "T"
        value {
          type: DT_FLOAT
        }
      }
      attr {
        key: "_class"
        value {
          list {
            s: "loc:@gradients/mul_grad/Reshape"
          }
        }
      }
      attr {
        key: "_output_shapes"
        value {
          list {
            shape {
            }
          }
        }
      }
    }
    node {
      name: "gradients/AddN_grad/tuple/control_dependency_3"
      op: "Identity"
      input: "gradients/mul_grad/tuple/control_dependency"
      input: "^gradients/AddN_grad/tuple/group_deps"
      attr {
        key: "T"
        value {
          type: DT_FLOAT
        }
      }
      attr {
        key: "_class"
        value {
          list {
            s: "loc:@gradients/mul_grad/Reshape"
          }
        }
      }
      attr {
        key: "_output_shapes"
        value {
          list {
            shape {
            }
          }
        }
      }
    }
    node {
      name: "gradients/AddN_grad/tuple/control_dependency_4"
      op: "Identity"
      input: "gradients/mul_grad/tuple/control_dependency"
      input: "^gradients/AddN_grad/tuple/group_deps"
      attr {
        key: "T"
        value {
          type: DT_FLOAT
        }
      }
      attr {
        key: "_class"
        value {
          list {
            s: "loc:@gradients/mul_grad/Reshape"
          }
        }
      }
      attr {
        key: "_output_shapes"
        value {
          list {
            shape {
            }
          }
        }
      }
    }
    node {
      name: "gradients/AddN_grad/tuple/control_dependency_5"
      op: "Identity"
      input: "gradients/mul_grad/tuple/control_dependency"
      input: "^gradients/AddN_grad/tuple/group_deps"
      attr {
        key: "T"
        value {
          type: DT_FLOAT
        }
      }
      attr {
        key: "_class"
        value {
          list {
            s: "loc:@gradients/mul_grad/Reshape"
          }
        }
      }
      attr {
        key: "_output_shapes"
        value {
          list {
            shape {
            }
          }
        }
      }
    }
    node {
      name: "gradients/AddN_grad/tuple/control_dependency_6"
      op: "Identity"
      input: "gradients/mul_grad/tuple/control_dependency"
      input: "^gradients/AddN_grad/tuple/group_deps"
      attr {
        key: "T"
        value {
          type: DT_FLOAT
        }
      }
      attr {
        key: "_class"
        value {
          list {
            s: "loc:@gradients/mul_grad/Reshape"
          }
        }
      }
      attr {
        key: "_output_shapes"
        value {
          list {
            shape {
            }
          }
        }
      }
    }
    node {
      name: "gradients/AddN_grad/tuple/control_dependency_7"
      op: "Identity"
      input: "gradients/mul_grad/tuple/control_dependency"
      input: "^gradients/AddN_grad/tuple/group_deps"
      attr {
        key: "T"
        value {
          type: DT_FLOAT
        }
      }
      attr {
        key: "_class"
        value {
          list {
            s: "loc:@gradients/mul_grad/Reshape"
          }
        }
      }
      attr {
        key: "_output_shapes"
        value {
          list {
            shape {
            }
          }
        }
      }
    }
    node {
      name: "gradients/AddN_grad/tuple/control_dependency_8"
      op: "Identity"
      input: "gradients/mul_grad/tuple/control_dependency"
      input: "^gradients/AddN_grad/tuple/group_deps"
      attr {
        key: "T"
        value {
          type: DT_FLOAT
        }
      }
      attr {
        key: "_class"
        value {
          list {
            s: "loc:@gradients/mul_grad/Reshape"
          }
        }
      }
      attr {
        key: "_output_shapes"
        value {
          list {
            shape {
            }
          }
        }
      }
    }
    node {
      name: "gradients/AddN_grad/tuple/control_dependency_9"
      op: "Identity"
      input: "gradients/mul_grad/tuple/control_dependency"
      input: "^gradients/AddN_grad/tuple/group_deps"
      attr {
        key: "T"
        value {
…
      name: "save_1/RestoreV2_15/tensor_names"
      op: "Const"
      attr {
        key: "_output_shapes"
        value {
          list {
            shape {
              dim {
                size: 1
              }
            }
          }
        }
      }
      attr {
        key: "dtype"
        value {
          type: DT_STRING
        }
      }
      attr {
        key: "value"
        value {
          tensor {
            dtype: DT_STRING
            tensor_shape {
              dim {
                size: 1
              }
            }
            string_val: "Variable_5"
          }
        }
      }
    }
    node {
      name: "save_1/RestoreV2_15/shape_and_slices"
      op: "Const"
      attr {
        key: "_output_shapes"
        value {
          list {
            shape {
              dim {
                size: 1
              }
            }
          }
        }
      }
      attr {
        key: "dtype"
        value {
          type: DT_STRING
        }
      }
      attr {
        key: "value"
        value {
          tensor {
            dtype: DT_STRING
            tensor_shape {
              dim {
                size: 1
              }
            }
            string_val: ""
          }
        }
      }
    }
    node {
      name: "save_1/RestoreV2_15"
      op: "RestoreV2"
      input: "save_1/Const"
      input: "save_1/RestoreV2_15/tensor_names"
      input: "save_1/RestoreV2_15/shape_and_slices"
      attr {
        key: "_output_shapes"
        value {
          list {
            shape {
              unknown_rank: true
            }
          }
        }
      }
      attr {
        key: "dtypes"
        value {
          list {
            type: DT_FLOAT
          }
        }
      }
    }
    node {
      name: "save_1/Assign_15"
      op: "Assign"
      input: "Variable_5"
      input: "save_1/RestoreV2_15"
      attr {
        key: "T"
        value {
          type: DT_FLOAT
        }
      }
      attr {
        key: "_class"
        value {
          list {
            s: "loc:@Variable_5"
          }
        }
      }
      attr {
        key: "_output_shapes"
        value {
          list {
            shape {
              dim {
                size: 120
              }
            }
          }
        }
      }
      attr {
        key: "use_locking"
        value {
          b: true
        }
      }
      attr {
        key: "validate_shape"
        value {
          b: true
        }
      }
    }
    node {
      name: "save_1/RestoreV2_16/tensor_names"
      op: "Const"
      attr {
        key: "_output_shapes"
        value {
          list {
            shape {
              dim {
                size: 1
              }
            }
          }
        }
      }
      attr {
        key: "dtype"
        value {
          type: DT_STRING
        }
      }
      attr {
        key: "value"
        value {
          tensor {
            dtype: DT_STRING
            tensor_shape {
              dim {
                size: 1
              }
            }
            string_val: "Variable_5/Adam"
          }
        }
      }
    }
    node {
      name: "save_1/RestoreV2_16/shape_and_slices"
      op: "Const"
      attr {
        key: "_output_shapes"
        value {
          list {
            shape {
              dim {
                size: 1
              }
            }
          }
        }
      }
      attr {
        key: "dtype"
        value {
          type: DT_STRING
        }
      }
      attr {
        key: "value"
        value {
          tensor {
            dtype: DT_STRING
            tensor_shape {
              dim {
                size: 1
              }
            }
            string_val: ""
          }
        }
      }
    }
    node {
      name: "save_1/RestoreV2_16"
      op: "RestoreV2"
      input: "save_1/Const"
      input: "save_1/RestoreV2_16/tensor_names"
      input: "save_1/RestoreV2_16/shape_and_slices"
      attr {
        key: "_output_shapes"
        value {
          list {
            shape {
              unknown_rank: true
            }
          }
        }
      }
      attr {
        key: "dtypes"
        value {
          list {
            type: DT_FLOAT
          }
        }
      }
    }
    node {
      name: "save_1/Assign_16"
      op: "Assign"
      input: "Variable_5/Adam"
      input: "save_1/RestoreV2_16"
      attr {
        key: "T"
        value {
          type: DT_FLOAT
        }
      }
      attr {
        key: "_class"
        value {
          list {
            s: "loc:@Variable_5"
          }
        }
      }
      attr {
        key: "_output_shapes"
        value {
          list {
            shape {
              dim {
                size: 120
              }
            }
          }
        }
      }
      attr {
        key: "use_locking"
        value {
          b: true
        }
      }
      attr {
        key: "validate_shape"
        value {
          b: true
        }
      }
    }
    node {
      name: "save_1/RestoreV2_17/tensor_names"
      op: "Const"
      attr {
        key: "_output_shapes"
        value {
          list {
            shape {
              dim {
                size: 1
              }
            }
          }
        }
      }
      attr {
        key: "dtype"
        value {
          type: DT_STRING
        }
      }
      attr {
        key: "value"
        value {
          tensor {
            dtype: DT_STRING
            tensor_shape {
              dim {
                size: 1
              }
            }
            string_val: "Variable_5/Adam_1"
          }
        }
      }
    }
    node {
      name: "save_1/RestoreV2_17/shape_and_slices"
      op: "Const"
      attr {
        key: "_output_shapes"
        value {
          list {
            shape {
              dim {
                size: 1
              }
            }
          }
        }
      }
      attr {
        key: "dtype"
        value {
          type: DT_STRING
        }
      }
      attr {
        key: "value"
        value {
          tensor {
            dtype: DT_STRING
            tensor_shape {
              dim {
                size: 1
              }
            }
            string_val: ""
          }
        }
      }
    }
    node {
      name: "save_1/RestoreV2_17"
      op: "RestoreV2"
      input: "save_1/Const"
      input: "save_1/RestoreV2_17/tensor_names"
      input: "save_1/RestoreV2_17/shape_and_slices"
      attr {
        key: "_output_shapes"
        value {
          list {
            shape {
              unknown_rank: true
            }
          }
        }
      }
      attr {
        key: "dtypes"
        value {
          list {
            type: DT_FLOAT
          }
        }
      }
    }
    node {
      name: "save_1/Assign_17"
      op: "Assign"
      input: "Variable_5/Adam_1"
      input: "save_1/RestoreV2_17"
      attr {
        key: "T"
        value {
          type: DT_FLOAT
        }
      }
      attr {
        key: "_class"
        value {
          list {
            s: "loc:@Variable_5"
          }
        }
      }
      attr {
        key: "_output_shapes"
        value {
          list {
            shape {
              dim {
                size: 120
              }
            }
          }
        }
      }
      attr {
        key: "use_locking"
        value {
          b: true
        }
      }
      attr {
        key: "validate_shape"
        value {
          b: true
        }
      }
    }
    node {
      name: "save_1/RestoreV2_18/tensor_names"
      op: "Const"
      attr {
        key: "_output_shapes"
        value {
          list {
            shape {
              dim {
                size: 1
              }
            }
          }
        }
      }
      attr {
        key: "dtype"
        value {
          type: DT_STRING
        }
      }
      attr {
        key: "value"
        value {
          tensor {
            dtype: DT_STRING
            tensor_shape {
              dim {
                size: 1
              }
            }
            string_val: "Variable_6"
          }
        }
      }
    }
    node {
      name: "save_1/RestoreV2_18/shape_and_slices"
      op: "Const"
      attr {
        key: "_output_shapes"
        value {
          list {
            shape {
              dim {
                size: 1
              }
            }
          }
        }
      }
      attr {
        key: "dtype"
        value {
          type: DT_STRING
        }
      }
      attr {
        key: "value"
        value {
          tensor {
            dtype: DT_STRING
            tensor_shape {
              dim {
                size: 1
              }
            }
            string_val: ""
          }
        }
      }
    }
    node {
      name: "save_1/RestoreV2_18"
      op: "RestoreV2"
      input: "save_1/Const"
      input: "save_1/RestoreV2_18/tensor_names"
      input: "save_1/RestoreV2_18/shape_and_slices"
      attr {
        key: "_output_shapes"
        value {
          list {
            shape {
              unknown_rank: true
            }
          }
        }
      }
      attr {
        key: "dtypes"
        value {
          list {
            type: DT_FLOAT
          }
        }
      }
    }
    node {
      name: "save_1/Assign_18"
      op: "Assign"
      input: "Variable_6"
      input: "save_1/RestoreV2_18"
      attr {
        key: "T"
        value {
          type: DT_FLOAT
        }
      }
      attr {
        key: "_class"
        value {
          list {
            s: "loc:@Variable_6"
          }
        }
      }
      attr {
        key: "_output_shapes"
        value {
          list {
            shape {
              dim {
                size: 120
              }
              dim {
                size: 84
              }
            }
          }
        }
      }
      attr {
        key: "use_locking"
        value {
          b: true
        }
      }
      attr {
        key: "validate_shape"
        value {
          b: true
        }
      }
    }
    node {
      name: "save_1/RestoreV2_19/tensor_names"
      op: "Const"
      attr {
        key: "_output_shapes"
        value {
          list {
            shape {
              dim {
                size: 1
              }
            }
          }
        }
      }
      attr {
        key: "dtype"
        value {
          type: DT_STRING
        }
      }
      attr {
        key: "value"
        value {
          tensor {
            dtype: DT_STRING
            tensor_shape {
              dim {
                size: 1
              }
            }
            string_val: "Variable_6/Adam"
          }
        }
      }
    }
    node {
      name: "save_1/RestoreV2_19/shape_and_slices"
      op: "Const"
      attr {
        key: "_output_shapes"
        value {
          list {
            shape {
              dim {
                size: 1
              }
            }
          }
        }
      }
      attr {
        key: "dtype"
        value {
          type: DT_STRING
        }
      }
      attr {
        key: "value"
        value {
          tensor {
            dtype: DT_STRING
            tensor_shape {
              dim {
                size: 1
              }
            }
            string_val: ""
          }
        }
      }
    }
    node {
      name: "save_1/RestoreV2_19"
      op: "RestoreV2"
      input: "save_1/Const"
      input: "save_1/RestoreV2_19/tensor_names"
      input: "save_1/RestoreV2_19/shape_and_slices"
      attr {
        key: "_output_shapes"
        value {
          list {
            shape {
              unknown_rank: true
            }
          }
        }
      }
      attr {
        key: "dtypes"
        value {
          list {
            type: DT_FLOAT
          }
        }
      }
    }
    node {
      name: "save_1/Assign_19"
      op: "Assign"
      input: "Variable_6/Adam"
      input: "save_1/RestoreV2_19"
      attr {
        key: "T"
        value {
          type: DT_FLOAT
        }
      }
      attr {
        key: "_class"
        value {
          list {
            s: "loc:@Variable_6"
          }
        }
      }
      attr {
        key: "_output_shapes"
        value {
          list {
            shape {
              dim {
                size: 120
              }
              dim {
                size: 84
              }
            }
          }
        }
      }
      attr {
        key: "use_locking"
        value {
          b: true
        }
      }
      attr {
        key: "validate_shape"
        value {
          b: true
        }
      }
    }
    node {
      name: "save_1/RestoreV2_20/tensor_names"
      op: "Const"
      attr {
        key: "_output_shapes"
        value {
          list {
            shape {
              dim {
                size: 1
              }
            }
          }
        }
      }
      attr {
        key: "dtype"
        value {
          type: DT_STRING
        }
      }
      attr {
        key: "value"
        value {
          tensor {
            dtype: DT_STRING
            tensor_shape {
              dim {
                size: 1
              }
            }
            string_val: "Variable_6/Adam_1"
          }
        }
      }
    }
    node {
      name: "save_1/RestoreV2_20/shape_and_slices"
      op: "Const"
      attr {
        key: "_output_shapes"
        value {
          list {
            shape {
              dim {
                size: 1
              }
            }
          }
        }
      }
      attr {
        key: "dtype"
        value {
          type: DT_STRING
        }
      }
      attr {
        key: "value"
        value {
          tensor {
            dtype: DT_STRING
            tensor_shape {
              dim {
                size: 1
              }
            }
            string_val: ""
          }
        }
      }
    }
    node {
      name: "save_1/RestoreV2_20"
      op: "RestoreV2"
      input: "save_1/Const"
      input: "save_1/RestoreV2_20/tensor_names"
      input: "save_1/RestoreV2_20/shape_and_slices"
      attr {
        key: "_output_shapes"
        value {
          list {
            shape {
              unknown_rank: true
            }
          }
        }
      }
      attr {
        key: "dtypes"
        value {
          list {
            type: DT_FLOAT
          }
        }
      }
    }
    node {
      name: "save_1/Assign_20"
      op: "Assign"
      input: "Variable_6/Adam_1"
      input: "save_1/RestoreV2_20"
      attr {
        key: "T"
        value {
          type: DT_FLOAT
        }
      }
      attr {
        key: "_class"
        value {
          list {
            s: "loc:@Variable_6"
          }
        }
      }
      attr {
        key: "_output_shapes"
        value {
          list {
            shape {
              dim {
                size: 120
              }
              dim {
                size: 84
              }
            }
          }
        }
      }
      attr {
        key: "use_locking"
        value {
          b: true
        }
      }
      attr {
        key: "validate_shape"
        value {
          b: true
        }
      }
    }
    node {
      name: "save_1/RestoreV2_21/tensor_names"
      op: "Const"
      attr {
        key: "_output_shapes"
        value {
          list {
            shape {
              dim {
                size: 1
              }
            }
          }
        }
      }
      attr {
        key: "dtype"
        value {
          type: DT_STRING
        }
      }
      attr {
        key: "value"
        value {
          tensor {
            dtype: DT_STRING
            tensor_shape {
              dim {
                size: 1
              }
            }
            string_val: "Variable_7"
          }
        }
      }
    }
    node {
      name: "save_1/RestoreV2_21/shape_and_slices"
      op: "Const"
      attr {
        key: "_output_shapes"
        value {
          list {
            shape {
              dim {
                size: 1
              }
            }
          }
        }
      }
      attr {
        key: "dtype"
        value {
          type: DT_STRING
        }
      }
      attr {
        key: "value"
        value {
          tensor {
            dtype: DT_STRING
            tensor_shape {
              dim {
                size: 1
              }
            }
            string_val: ""
          }
        }
      }
    }
    node {
      name: "save_1/RestoreV2_21"
      op: "RestoreV2"
      input: "save_1/Const"
      input: "save_1/RestoreV2_21/tensor_names"
      input: "save_1/RestoreV2_21/shape_and_slices"
      attr {
        key: "_output_shapes"
        value {
          list {
            shape {
              unknown_rank: true
            }
          }
        }
      }
      attr {
        key: "dtypes"
        value {
          list {
            type: DT_FLOAT
          }
        }
      }
    }
    node {
      name: "save_1/Assign_21"
      op: "Assign"
      input: "Variable_7"
      input: "save_1/RestoreV2_21"
      attr {
        key: "T"
        value {
          type: DT_FLOAT
        }
      }
      attr {
        key: "_class"
        value {
          list {
            s: "loc:@Variable_7"
          }
        }
      }
      attr {
        key: "_output_shapes"
        value {
          list {
            shape {
              dim {
                size: 84
              }
            }
          }
        }
      }
      attr {
        key: "use_locking"
        value {
          b: true
        }
      }
      attr {
        key: "validate_shape"
        value {
          b: true
        }
      }
    }
    node {
      name: "save_1/RestoreV2_22/tensor_names"
      op: "Const"
      attr {
        key: "_output_shapes"
        value {
          list {
            shape {
              dim {
                size: 1
              }
            }
          }
        }
      }
      attr {
        key: "dtype"
        value {
          type: DT_STRING
        }
      }
      attr {
        key: "value"
        value {
          tensor {
            dtype: DT_STRING
            tensor_shape {
              dim {
                size: 1
              }
            }
            string_val: "Variable_7/Adam"
          }
        }
      }
    }
    node {
      name: "save_1/RestoreV2_22/shape_and_slices"
      op: "Const"
      attr {
        key: "_output_shapes"
        value {
          list {
            shape {
              dim {
                size: 1
              }
            }
          }
        }
      }
      attr {
        key: "dtype"
        value {
          type: DT_STRING
        }
      }
      attr {
        key: "value"
        value {
          tensor {
            dtype: DT_STRING
            tensor_shape {
              dim {
                size: 1
              }
            }
            string_val: ""
          }
        }
      }
    }
    node {
      name: "save_1/RestoreV2_22"
      op: "RestoreV2"
      input: "save_1/Const"
      input: "save_1/RestoreV2_22/tensor_names"
      input: "save_1/RestoreV2_22/shape_and_slices"
      attr {
        key: "_output_shapes"
        value {
          list {
            shape {
              unknown_rank: true
            }
          }
        }
      }
      attr {
        key: "dtypes"
        value {
          list {
            type: DT_FLOAT
          }
        }
      }
    }
    node {
      name: "save_1/Assign_22"
      op: "Assign"
      input: "Variable_7/Adam"
      input: "save_1/RestoreV2_22"
      attr {
        key: "T"
        value {
          type: DT_FLOAT
        }
      }
      attr {
        key: "_class"
        value {
          list {
            s: "loc:@Variable_7"
          }
        }
      }
      attr {
        key: "_output_shapes"
        value {
          list {
            shape {
              dim {
                size: 84
              }
            }
          }
        }
      }
      attr {
        key: "use_locking"
        value {
          b: true
        }
      }
      attr {
        key: "validate_shape"
        value {
          b: true
        }
      }
    }
    node {
      name: "save_1/RestoreV2_23/tensor_names"
      op: "Const"
      attr {
        key: "_output_shapes"
        value {
          list {
            shape {
              dim {
                size: 1
              }
            }
          }
        }
      }
      attr {
        key: "dtype"
        value {
          type: DT_STRING
        }
      }
      attr {
        key: "value"
        value {
          tensor {
            dtype: DT_STRING
            tensor_shape {
              dim {
                size: 1
              }
            }
            string_val: "Variable_7/Adam_1"
          }
        }
      }
    }
    node {
      name: "save_1/RestoreV2_23/shape_and_slices"
      op: "Const"
      attr {
        key: "_output_shapes"
        value {
          list {
            shape {
              dim {
                size: 1
              }
            }
          }
        }
      }
      attr {
        key: "dtype"
        value {
          type: DT_STRING
        }
      }
      attr {
        key: "value"
        value {
          tensor {
            dtype: DT_STRING
            tensor_shape {
              dim {
                size: 1
              }
            }
            string_val: ""
          }
        }
      }
    }
    node {
      name: "save_1/RestoreV2_23"
      op: "RestoreV2"
      input: "save_1/Const"
      input: "save_1/RestoreV2_23/tensor_names"
      input: "save_1/RestoreV2_23/shape_and_slices"
      attr {
        key: "_output_shapes"
        value {
          list {
            shape {
              unknown_rank: true
            }
          }
        }
      }
      attr {
        key: "dtypes"
        value {
          list {
            type: DT_FLOAT
          }
        }
      }
    }
    node {
      name: "save_1/Assign_23"
      op: "Assign"
      input: "Variable_7/Adam_1"
      input: "save_1/RestoreV2_23"
      attr {
        key: "T"
        value {
          type: DT_FLOAT
        }
      }
      attr {
        key: "_class"
        value {
          list {
            s: "loc:@Variable_7"
          }
        }
      }
      attr {
        key: "_output_shapes"
        value {
          list {
            shape {
              dim {
                size: 84
              }
            }
          }
        }
      }
      attr {
        key: "use_locking"
        value {
          b: true
        }
      }
      attr {
        key: "validate_shape"
        value {
          b: true
        }
      }
    }
    node {
      name: "save_1/RestoreV2_24/tensor_names"
      op: "Const"
      attr {
        key: "_output_shapes"
        value {
          list {
            shape {
              dim {
                size: 1
              }
            }
          }
        }
      }
      attr {
        key: "dtype"
        value {
          type: DT_STRING
        }
      }
      attr {
        key: "value"
        value {
          tensor {
            dtype: DT_STRING
            tensor_shape {
              dim {
                size: 1
              }
            }
            string_val: "Variable_8"
          }
        }
      }
    }
    node {
      name: "save_1/RestoreV2_24/shape_and_slices"
      op: "Const"
      attr {
        key: "_output_shapes"
        value {
          list {
            shape {
              dim {
                size: 1
              }
            }
          }
        }
      }
      attr {
        key: "dtype"
        value {
          type: DT_STRING
        }
      }
      attr {
        key: "value"
        value {
          tensor {
            dtype: DT_STRING
            tensor_shape {
              dim {
                size: 1
              }
            }
            string_val: ""
          }
        }
      }
    }
    node {
      name: "save_1/RestoreV2_24"
      op: "RestoreV2"
      input: "save_1/Const"
      input: "save_1/RestoreV2_24/tensor_names"
      input: "save_1/RestoreV2_24/shape_and_slices"
      attr {
        key: "_output_shapes"
        value {
          list {
            shape {
              unknown_rank: true
            }
          }
        }
      }
      attr {
        key: "dtypes"
        value {
          list {
            type: DT_FLOAT
          }
        }
      }
    }
    node {
      name: "save_1/Assign_24"
      op: "Assign"
      input: "Variable_8"
      input: "save_1/RestoreV2_24"
      attr {
        key: "T"
        value {
          type: DT_FLOAT
        }
      }
      attr {
        key: "_class"
        value {
          list {
            s: "loc:@Variable_8"
          }
        }
      }
      attr {
        key: "_output_shapes"
        value {
          list {
            shape {
              dim {
                size: 84
              }
              dim {
                size: 43
              }
            }
          }
        }
      }
      attr {
        key: "use_locking"
        value {
          b: true
        }
      }
      attr {
        key: "validate_shape"
        value {
          b: true
        }
      }
    }
    node {
      name: "save_1/RestoreV2_25/tensor_names"
      op: "Const"
      attr {
        key: "_output_shapes"
        value {
          list {
            shape {
              dim {
                size: 1
              }
            }
          }
        }
      }
      attr {
        key: "dtype"
        value {
          type: DT_STRING
        }
      }
      attr {
        key: "value"
        value {
          tensor {
            dtype: DT_STRING
            tensor_shape {
              dim {
                size: 1
              }
            }
            string_val: "Variable_8/Adam"
          }
        }
      }
    }
    node {
      name: "save_1/RestoreV2_25/shape_and_slices"
      op: "Const"
      attr {
        key: "_output_shapes"
        value {
          list {
            shape {
              dim {
                size: 1
              }
            }
          }
        }
      }
      attr {
        key: "dtype"
        value {
          type: DT_STRING
        }
      }
      attr {
        key: "value"
        value {
          tensor {
            dtype: DT_STRING
            tensor_shape {
              dim {
                size: 1
              }
            }
            string_val: ""
          }
        }
      }
    }
    node {
      name: "save_1/RestoreV2_25"
      op: "RestoreV2"
      input: "save_1/Const"
      input: "save_1/RestoreV2_25/tensor_names"
      input: "save_1/RestoreV2_25/shape_and_slices"
      attr {
        key: "_output_shapes"
        value {
          list {
            shape {
              unknown_rank: true
            }
          }
        }
      }
      attr {
        key: "dtypes"
        value {
          list {
            type: DT_FLOAT
          }
        }
      }
    }
    node {
      name: "save_1/Assign_25"
      op: "Assign"
      input: "Variable_8/Adam"
      input: "save_1/RestoreV2_25"
      attr {
        key: "T"
        value {
          type: DT_FLOAT
        }
      }
      attr {
        key: "_class"
        value {
          list {
            s: "loc:@Variable_8"
          }
        }
      }
      attr {
        key: "_output_shapes"
        value {
          list {
            shape {
              dim {
                size: 84
              }
              dim {
                size: 43
              }
            }
          }
        }
      }
      attr {
        key: "use_locking"
        value {
          b: true
        }
      }
      attr {
        key: "validate_shape"
        value {
          b: true
        }
      }
    }
    node {
      name: "save_1/RestoreV2_26/tensor_names"
      op: "Const"
      attr {
        key: "_output_shapes"
        value {
          list {
            shape {
              dim {
                size: 1
              }
            }
          }
        }
      }
      attr {
        key: "dtype"
        value {
          type: DT_STRING
        }
      }
      attr {
        key: "value"
        value {
          tensor {
            dtype: DT_STRING
            tensor_shape {
              dim {
                size: 1
              }
            }
            string_val: "Variable_8/Adam_1"
          }
        }
      }
    }
    node {
      name: "save_1/RestoreV2_26/shape_and_slices"
      op: "Const"
      attr {
        key: "_output_shapes"
        value {
          list {
            shape {
              dim {
                size: 1
              }
            }
          }
        }
      }
      attr {
        key: "dtype"
        value {
          type: DT_STRING
        }
      }
      attr {
        key: "value"
        value {
          tensor {
            dtype: DT_STRING
            tensor_shape {
              dim {
                size: 1
              }
            }
            string_val: ""
          }
        }
      }
    }
    node {
      name: "save_1/RestoreV2_26"
      op: "RestoreV2"
      input: "save_1/Const"
      input: "save_1/RestoreV2_26/tensor_names"
      input: "save_1/RestoreV2_26/shape_and_slices"
      attr {
        key: "_output_shapes"
        value {
          list {
            shape {
              unknown_rank: true
            }
          }
        }
      }
      attr {
        key: "dtypes"
        value {
          list {
            type: DT_FLOAT
          }
        }
      }
    }
    node {
      name: "save_1/Assign_26"
      op: "Assign"
      input: "Variable_8/Adam_1"
      input: "save_1/RestoreV2_26"
      attr {
        key: "T"
        value {
          type: DT_FLOAT
        }
      }
      attr {
        key: "_class"
        value {
          list {
            s: "loc:@Variable_8"
          }
        }
      }
      attr {
        key: "_output_shapes"
        value {
          list {
            shape {
              dim {
                size: 84
              }
              dim {
                size: 43
              }
            }
          }
        }
      }
      attr {
        key: "use_locking"
        value {
          b: true
        }
      }
      attr {
        key: "validate_shape"
        value {
          b: true
        }
      }
    }
    node {
      name: "save_1/RestoreV2_27/tensor_names"
      op: "Const"
      attr {
        key: "_output_shapes"
        value {
          list {
            shape {
              dim {
                size: 1
              }
            }
          }
        }
      }
      attr {
        key: "dtype"
        value {
          type: DT_STRING
        }
      }
      attr {
        key: "value"
        value {
          tensor {
            dtype: DT_STRING
            tensor_shape {
              dim {
                size: 1
              }
            }
            string_val: "Variable_9"
          }
        }
      }
    }
    node {
      name: "save_1/RestoreV2_27/shape_and_slices"
      op: "Const"
      attr {
        key: "_output_shapes"
        value {
          list {
            shape {
              dim {
                size: 1
              }
            }
          }
        }
      }
      attr {
        key: "dtype"
        value {
          type: DT_STRING
        }
      }
      attr {
        key: "value"
        value {
          tensor {
            dtype: DT_STRING
            tensor_shape {
              dim {
                size: 1
              }
            }
            string_val: ""
          }
        }
      }
    }
    node {
      name: "save_1/RestoreV2_27"
      op: "RestoreV2"
      input: "save_1/Const"
      input: "save_1/RestoreV2_27/tensor_names"
      input: "save_1/RestoreV2_27/shape_and_slices"
      attr {
        key: "_output_shapes"
        value {
          list {
            shape {
              unknown_rank: true
            }
          }
        }
      }
      attr {
        key: "dtypes"
        value {
          list {
            type: DT_FLOAT
          }
        }
      }
    }
    node {
      name: "save_1/Assign_27"
      op: "Assign"
      input: "Variable_9"
      input: "save_1/RestoreV2_27"
      attr {
        key: "T"
        value {
          type: DT_FLOAT
        }
      }
      attr {
        key: "_class"
        value {
          list {
            s: "loc:@Variable_9"
          }
        }
      }
      attr {
        key: "_output_shapes"
        value {
          list {
            shape {
              dim {
                size: 43
              }
            }
          }
        }
      }
      attr {
        key: "use_locking"
        value {
          b: true
        }
      }
      attr {
        key: "validate_shape"
        value {
          b: true
        }
      }
    }
    node {
      name: "save_1/RestoreV2_28/tensor_names"
      op: "Const"
      attr {
        key: "_output_shapes"
        value {
          list {
            shape {
              dim {
                size: 1
              }
            }
          }
        }
      }
      attr {
        key: "dtype"
        value {
          type: DT_STRING
        }
      }
      attr {
        key: "value"
        value {
          tensor {
            dtype: DT_STRING
            tensor_shape {
              dim {
                size: 1
              }
            }
            string_val: "Variable_9/Adam"
          }
        }
      }
    }
    node {
      name: "save_1/RestoreV2_28/shape_and_slices"
      op: "Const"
      attr {
        key: "_output_shapes"
        value {
          list {
            shape {
              dim {
                size: 1
              }
            }
          }
        }
      }
      attr {
        key: "dtype"
        value {
          type: DT_STRING
        }
      }
      attr {
        key: "value"
        value {
          tensor {
            dtype: DT_STRING
            tensor_shape {
              dim {
                size: 1
              }
            }
            string_val: ""
          }
        }
      }
    }
    node {
      name: "save_1/RestoreV2_28"
      op: "RestoreV2"
      input: "save_1/Const"
      input: "save_1/RestoreV2_28/tensor_names"
      input: "save_1/RestoreV2_28/shape_and_slices"
      attr {
        key: "_output_shapes"
        value {
          list {
            shape {
              unknown_rank: true
            }
          }
        }
      }
      attr {
        key: "dtypes"
        value {
          list {
            type: DT_FLOAT
          }
        }
      }
    }
    node {
      name: "save_1/Assign_28"
      op: "Assign"
      input: "Variable_9/Adam"
      input: "save_1/RestoreV2_28"
      attr {
        key: "T"
        value {
          type: DT_FLOAT
        }
      }
      attr {
        key: "_class"
        value {
          list {
            s: "loc:@Variable_9"
          }
        }
      }
      attr {
        key: "_output_shapes"
        value {
          list {
            shape {
              dim {
                size: 43
              }
            }
          }
        }
      }
      attr {
        key: "use_locking"
        value {
          b: true
        }
      }
      attr {
        key: "validate_shape"
        value {
          b: true
        }
      }
    }
    node {
      name: "save_1/RestoreV2_29/tensor_names"
      op: "Const"
      attr {
        key: "_output_shapes"
        value {
          list {
            shape {
              dim {
                size: 1
              }
            }
          }
        }
      }
      attr {
        key: "dtype"
        value {
          type: DT_STRING
        }
      }
      attr {
        key: "value"
        value {
          tensor {
            dtype: DT_STRING
            tensor_shape {
              dim {
                size: 1
              }
            }
            string_val: "Variable_9/Adam_1"
          }
        }
      }
    }
    node {
      name: "save_1/RestoreV2_29/shape_and_slices"
      op: "Const"
      attr {
        key: "_output_shapes"
        value {
          list {
            shape {
              dim {
                size: 1
              }
            }
          }
        }
      }
      attr {
        key: "dtype"
        value {
          type: DT_STRING
        }
      }
      attr {
        key: "value"
        value {
          tensor {
            dtype: DT_STRING
            tensor_shape {
              dim {
                size: 1
              }
            }
            string_val: ""
          }
        }
      }
    }
    node {
      name: "save_1/RestoreV2_29"
      op: "RestoreV2"
      input: "save_1/Const"
      input: "save_1/RestoreV2_29/tensor_names"
      input: "save_1/RestoreV2_29/shape_and_slices"
      attr {
        key: "_output_shapes"
        value {
          list {
            shape {
              unknown_rank: true
            }
          }
        }
      }
      attr {
        key: "dtypes"
        value {
          list {
            type: DT_FLOAT
          }
        }
      }
    }
    node {
      name: "save_1/Assign_29"
      op: "Assign"
      input: "Variable_9/Adam_1"
      input: "save_1/RestoreV2_29"
      attr {
        key: "T"
        value {
          type: DT_FLOAT
        }
      }
      attr {
        key: "_class"
        value {
          list {
            s: "loc:@Variable_9"
          }
        }
      }
      attr {
        key: "_output_shapes"
        value {
          list {
            shape {
              dim {
                size: 43
              }
            }
          }
        }
      }
      attr {
        key: "use_locking"
        value {
          b: true
        }
      }
      attr {
        key: "validate_shape"
        value {
          b: true
        }
      }
    }
    node {
      name: "save_1/RestoreV2_30/tensor_names"
      op: "Const"
      attr {
        key: "_output_shapes"
        value {
          list {
            shape {
              dim {
                size: 1
              }
            }
          }
        }
      }
      attr {
        key: "dtype"
        value {
          type: DT_STRING
        }
      }
      attr {
        key: "value"
        value {
          tensor {
            dtype: DT_STRING
            tensor_shape {
              dim {
                size: 1
              }
            }
            string_val: "beta1_power"
          }
        }
      }
    }
    node {
      name: "save_1/RestoreV2_30/shape_and_slices"
      op: "Const"
      attr {
        key: "_output_shapes"
        value {
          list {
            shape {
              dim {
                size: 1
              }
            }
          }
        }
      }
      attr {
        key: "dtype"
        value {
          type: DT_STRING
        }
      }
      attr {
        key: "value"
        value {
          tensor {
            dtype: DT_STRING
            tensor_shape {
              dim {
                size: 1
              }
            }
            string_val: ""
          }
        }
      }
    }
    node {
      name: "save_1/RestoreV2_30"
      op: "RestoreV2"
      input: "save_1/Const"
      input: "save_1/RestoreV2_30/tensor_names"
      input: "save_1/RestoreV2_30/shape_and_slices"
      attr {
        key: "_output_shapes"
        value {
          list {
            shape {
              unknown_rank: true
            }
          }
        }
      }
      attr {
        key: "dtypes"
        value {
          list {
            type: DT_FLOAT
          }
        }
      }
    }
    node {
      name: "save_1/Assign_30"
      op: "Assign"
      input: "beta1_power"
      input: "save_1/RestoreV2_30"
      attr {
        key: "T"
        value {
          type: DT_FLOAT
        }
      }
      attr {
        key: "_class"
        value {
          list {
            s: "loc:@Variable"
          }
        }
      }
      attr {
        key: "_output_shapes"
        value {
          list {
            shape {
            }
          }
        }
      }
      attr {
        key: "use_locking"
        value {
          b: true
        }
      }
      attr {
        key: "validate_shape"
        value {
          b: true
        }
      }
    }
    node {
      name: "save_1/RestoreV2_31/tensor_names"
      op: "Const"
      attr {
        key: "_output_shapes"
        value {
          list {
            shape {
              dim {
                size: 1
              }
            }
          }
        }
      }
      attr {
        key: "dtype"
        value {
          type: DT_STRING
        }
      }
      attr {
        key: "value"
        value {
          tensor {
            dtype: DT_STRING
            tensor_shape {
              dim {
                size: 1
              }
            }
            string_val: "beta2_power"
          }
        }
      }
    }
    node {
      name: "save_1/RestoreV2_31/shape_and_slices"
      op: "Const"
      attr {
        key: "_output_shapes"
        value {
          list {
            shape {
              dim {
                size: 1
              }
            }
          }
        }
      }
      attr {
        key: "dtype"
        value {
          type: DT_STRING
        }
      }
      attr {
        key: "value"
        value {
          tensor {
            dtype: DT_STRING
            tensor_shape {
              dim {
                size: 1
              }
            }
            string_val: ""
          }
        }
      }
    }
    node {
      name: "save_1/RestoreV2_31"
      op: "RestoreV2"
      input: "save_1/Const"
      input: "save_1/RestoreV2_31/tensor_names"
      input: "save_1/RestoreV2_31/shape_and_slices"
      attr {
        key: "_output_shapes"
        value {
          list {
            shape {
              unknown_rank: true
            }
          }
        }
      }
      attr {
        key: "dtypes"
        value {
          list {
            type: DT_FLOAT
          }
        }
      }
    }
    node {
      name: "save_1/Assign_31"
      op: "Assign"
      input: "beta2_power"
      input: "save_1/RestoreV2_31"
      attr {
        key: "T"
        value {
          type: DT_FLOAT
        }
      }
      attr {
        key: "_class"
        value {
          list {
            s: "loc:@Variable"
          }
        }
      }
      attr {
        key: "_output_shapes"
        value {
          list {
            shape {
            }
          }
        }
      }
      attr {
        key: "use_locking"
        value {
          b: true
        }
      }
      attr {
        key: "validate_shape"
        value {
          b: true
        }
      }
    }
    node {
      name: "save_1/restore_shard"
      op: "NoOp"
      input: "^save_1/Assign"
      input: "^save_1/Assign_1"
      input: "^save_1/Assign_2"
      input: "^save_1/Assign_3"
      input: "^save_1/Assign_4"
      input: "^save_1/Assign_5"
      input: "^save_1/Assign_6"
      input: "^save_1/Assign_7"
      input: "^save_1/Assign_8"
      input: "^save_1/Assign_9"
      input: "^save_1/Assign_10"
      input: "^save_1/Assign_11"
      input: "^save_1/Assign_12"
      input: "^save_1/Assign_13"
      input: "^save_1/Assign_14"
      input: "^save_1/Assign_15"
      input: "^save_1/Assign_16"
      input: "^save_1/Assign_17"
      input: "^save_1/Assign_18"
      input: "^save_1/Assign_19"
      input: "^save_1/Assign_20"
      input: "^save_1/Assign_21"
      input: "^save_1/Assign_22"
      input: "^save_1/Assign_23"
      input: "^save_1/Assign_24"
      input: "^save_1/Assign_25"
      input: "^save_1/Assign_26"
      input: "^save_1/Assign_27"
      input: "^save_1/Assign_28"
      input: "^save_1/Assign_29"
      input: "^save_1/Assign_30"
      input: "^save_1/Assign_31"
    }
    node {
      name: "save_1/restore_all"
      op: "NoOp"
      input: "^save_1/restore_shard"
    }
    versions {
      producer: 24
    }
  }
  saver_def {
    filename_tensor_name: "save_1/Const:0"
    save_tensor_name: "save_1/Identity:0"
    restore_op_name: "save_1/restore_all"
    max_to_keep: 5
    sharded: true
    keep_checkpoint_every_n_hours: 10000.0
    version: V2
  }
  collection_def {
    key: "train_op"
    value {
      node_list {
        value: "Adam"
      }
    }
  }
  collection_def {
    key: "trainable_variables"
    value {
      bytes_list {
        value: "\n\nVariable:0\022\017Variable/Assign\032\017Variable/read:02\022truncated_normal:0"
        value: "\n\014Variable_1:0\022\021Variable_1/Assign\032\021Variable_1/read:02\007zeros:0"
        value: "\n\014Variable_2:0\022\021Variable_2/Assign\032\021Variable_2/read:02\024truncated_normal_1:0"
        value: "\n\014Variable_3:0\022\021Variable_3/Assign\032\021Variable_3/read:02\tzeros_1:0"
        value: "\n\014Variable_4:0\022\021Variable_4/Assign\032\021Variable_4/read:02\024truncated_normal_2:0"
        value: "\n\014Variable_5:0\022\021Variable_5/Assign\032\021Variable_5/read:02\tzeros_2:0"
        value: "\n\014Variable_6:0\022\021Variable_6/Assign\032\021Variable_6/read:02\024truncated_normal_3:0"
        value: "\n\014Variable_7:0\022\021Variable_7/Assign\032\021Variable_7/read:02\tzeros_3:0"
        value: "\n\014Variable_8:0\022\021Variable_8/Assign\032\021Variable_8/read:02\024truncated_normal_4:0"
        value: "\n\014Variable_9:0\022\021Variable_9/Assign\032\021Variable_9/read:02\tzeros_4:0"
      }
    }
  }
  collection_def {
    key: "variables"
    value {
      bytes_list {
        value: "\n\nVariable:0\022\017Variable/Assign\032\017Variable/read:02\022truncated_normal:0"
        value: "\n\014Variable_1:0\022\021Variable_1/Assign\032\021Variable_1/read:02\007zeros:0"
        value: "\n\014Variable_2:0\022\021Variable_2/Assign\032\021Variable_2/read:02\024truncated_normal_1:0"
        value: "\n\014Variable_3:0\022\021Variable_3/Assign\032\021Variable_3/read:02\tzeros_1:0"
        value: "\n\014Variable_4:0\022\021Variable_4/Assign\032\021Variable_4/read:02\024truncated_normal_2:0"
        value: "\n\014Variable_5:0\022\021Variable_5/Assign\032\021Variable_5/read:02\tzeros_2:0"
        value: "\n\014Variable_6:0\022\021Variable_6/Assign\032\021Variable_6/read:02\024truncated_normal_3:0"
        value: "\n\014Variable_7:0\022\021Variable_7/Assign\032\021Variable_7/read:02\tzeros_3:0"
        value: "\n\014Variable_8:0\022\021Variable_8/Assign\032\021Variable_8/read:02\024truncated_normal_4:0"
        value: "\n\014Variable_9:0\022\021Variable_9/Assign\032\021Variable_9/read:02\tzeros_4:0"
        value: "\n\rbeta1_power:0\022\022beta1_power/Assign\032\022beta1_power/read:02\033beta1_power/initial_value:0"
        value: "\n\rbeta2_power:0\022\022beta2_power/Assign\032\022beta2_power/read:02\033beta2_power/initial_value:0"
        value: "\n\017Variable/Adam:0\022\024Variable/Adam/Assign\032\024Variable/Adam/read:02!Variable/Adam/Initializer/zeros:0"
        value: "\n\021Variable/Adam_1:0\022\026Variable/Adam_1/Assign\032\026Variable/Adam_1/read:02#Variable/Adam_1/Initializer/zeros:0"
        value: "\n\021Variable_1/Adam:0\022\026Variable_1/Adam/Assign\032\026Variable_1/Adam/read:02#Variable_1/Adam/Initializer/zeros:0"
        value: "\n\023Variable_1/Adam_1:0\022\030Variable_1/Adam_1/Assign\032\030Variable_1/Adam_1/read:02%Variable_1/Adam_1/Initializer/zeros:0"
        value: "\n\021Variable_2/Adam:0\022\026Variable_2/Adam/Assign\032\026Variable_2/Adam/read:02#Variable_2/Adam/Initializer/zeros:0"
        value: "\n\023Variable_2/Adam_1:0\022\030Variable_2/Adam_1/Assign\032\030Variable_2/Adam_1/read:02%Variable_2/Adam_1/Initializer/zeros:0"
        value: "\n\021Variable_3/Adam:0\022\026Variable_3/Adam/Assign\032\026Variable_3/Adam/read:02#Variable_3/Adam/Initializer/zeros:0"
        value: "\n\023Variable_3/Adam_1:0\022\030Variable_3/Adam_1/Assign\032\030Variable_3/Adam_1/read:02%Variable_3/Adam_1/Initializer/zeros:0"
        value: "\n\021Variable_4/Adam:0\022\026Variable_4/Adam/Assign\032\026Variable_4/Adam/read:02#Variable_4/Adam/Initializer/zeros:0"
        value: "\n\023Variable_4/Adam_1:0\022\030Variable_4/Adam_1/Assign\032\030Variable_4/Adam_1/read:02%Variable_4/Adam_1/Initializer/zeros:0"
        value: "\n\021Variable_5/Adam:0\022\026Variable_5/Adam/Assign\032\026Variable_5/Adam/read:02#Variable_5/Adam/Initializer/zeros:0"
        value: "\n\023Variable_5/Adam_1:0\022\030Variable_5/Adam_1/Assign\032\030Variable_5/Adam_1/read:02%Variable_5/Adam_1/Initializer/zeros:0"
        value: "\n\021Variable_6/Adam:0\022\026Variable_6/Adam/Assign\032\026Variable_6/Adam/read:02#Variable_6/Adam/Initializer/zeros:0"
        value: "\n\023Variable_6/Adam_1:0\022\030Variable_6/Adam_1/Assign\032\030Variable_6/Adam_1/read:02%Variable_6/Adam_1/Initializer/zeros:0"
        value: "\n\021Variable_7/Adam:0\022\026Variable_7/Adam/Assign\032\026Variable_7/Adam/read:02#Variable_7/Adam/Initializer/zeros:0"
        value: "\n\023Variable_7/Adam_1:0\022\030Variable_7/Adam_1/Assign\032\030Variable_7/Adam_1/read:02%Variable_7/Adam_1/Initializer/zeros:0"
        value: "\n\021Variable_8/Adam:0\022\026Variable_8/Adam/Assign\032\026Variable_8/Adam/read:02#Variable_8/Adam/Initializer/zeros:0"
        value: "\n\023Variable_8/Adam_1:0\022\030Variable_8/Adam_1/Assign\032\030Variable_8/Adam_1/read:02%Variable_8/Adam_1/Initializer/zeros:0"
        value: "\n\021Variable_9/Adam:0\022\026Variable_9/Adam/Assign\032\026Variable_9/Adam/read:02#Variable_9/Adam/Initializer/zeros:0"
        value: "\n\023Variable_9/Adam_1:0\022\030Variable_9/Adam_1/Assign\032\030Variable_9/Adam_1/read:02%Variable_9/Adam_1/Initializer/zeros:0"
      }
    }
  }
}
